model_epo0019.npz (npz, 689356 bytes, 46 tensors)

predictor/conv7/W f4 [50, 50, 3, 3]
00000000: bd39 203e 1e7d c63d 9e3e 243d b4a0 233e
00000010: 788c 94bd 51f6 4dbd 1bb9 733d a332 483c
00000020: b943 003d c485 84bd a7f2 4d3e e8c0 1c3e
00000030: 626e 733d e092 80bd e53b 803d afdd 23be
00000040: 58b6 e2bd d9f2 d0bd 7f3d c93b a5fe f03d
00000050: c704 4b3e 6d40 4bbc 7eaa 9fbe 63f8 2b3e
00000060: dd76 24bd 3152 c3bd 4841 7c3c 5521 d63d
00000070: 33d6 61bd d56f 8fbd 68fe c23d 49d8 d23b
00000080: 0a73 59be 0426 02be d2a8 31bd 6783 3abe
00000090: 1348 a53c 8543 033e 203d 99bd 2080 af3d
000000a0: d5c0 cbbd 71ac 88bd e941 103e c012 fdbc
000000b0: c1d5 63bd fb35 dcbd 20e8 90bd 1aea 93be
000000c0: aedb 8cba 95d3 95bd a3d2 a63d 3c42 ae3d
000000d0: b147 cabb f01e 723d d013 3b3d 88cf 00be
000000e0: 542e 01bd 11e9 0d3e 8cf0 f2bc 15c5 26bc
000000f0: ede3 a4bc aacd 8abb 546d 38bd 110e d7bc
00000100: 5b03 85bc 9dc7 0d3c a320 983c ef12 71bd
00000110: 8404 923d 8ae7 993d ff15 15be f4dc dd3d
00000120: f47b dd3d e69c 01bd 8727 9fbc 628f 18bd
00000130: 1dc9 8fbd af9c e7bd 698b fc3d eeee ba3d
00000140: 6a3b a8bd f87e a4bd 0687 bf3c 2a5b 933d
00000150: d2bb 5bbd e5ec e13c 8741 2ebc 95eb 3b3d
00000160: 12d7 f13d a42c 43be 369a 653d ad00 f33d
00000170: ce66 033e e655 1dbe d42f 9d3b 4224 6a3c
00000180: aa22 2a3d aab8 6d3d 8a29 543d 4592 80bd
00000190: 7388 503c af2f f6bd 7c87 02bd 6f05 3c3d
000001a0: e235 50be 949c 9c3b 48d4 663c fe5d 13bd
000001b0: 0dbf 21bd 9b2e 823d 56cb b9bd c65c 313c
000001c0: e8c1 e4bc f1e8 9abd 2f50 863e 7d01 b2bd
000001d0: ffce 5d3d de2a 0d3c b3d6 c93d 26e1 813c
000001e0: c85f 3bbc d3dd f9bc 2af4 9f3d 9bbc 77bd
000001f0: 75c9 c23d 162a 8a3d 19c2 9fbc 2b8e dbbd
00000200: 9e1a 29bd 90ae 1a3e 4add dc3c cfb7 37bc
00000210: fe26 f53d 9f4b dc3d 8923 b6bc b318 81be
00000220: ebed 03bd 989c 8abd 3f7a 503e b6cb 75bd
00000230: a688 3ebb cbb0 203e 5141 4cbd 7099 553c
00000240: 10c1 a8bd a25c 84bc ef2e 92bc 037c a33d
00000250: 6ca6 c1bd f730 35bd 67f1 92bd 0cd9 84be
00000260: 2d2f 703a d68a 91bd 7fb6 433d 7c6a ffbb
00000270: b9f6 ffbd 57d0 003c 2899 c03d c551 773d
00000280: 7d29 df3c 50d5 fd3c 16f9 2c3e 710e 663e
00000290: faf1 293d 7025 a1bd 5177 393d 2d80 af3d
000002a0: 7b0e 7bbd 5e5f 80bd 99df 1d3e 25a4 0a3c
000002b0: 2859 aebd b32d a7bd ddcb c53c 99dc 1a3d
000002c0: f55f dbbd ef97 5fbd 4ef5 e83d 27a0 14bd
000002d0: 9d3f 063d bb60 c1bd 77bd 2bbe 1f5f a53d
000002e0: a1e9 b8bd ca91 08be 1f6e 4f3d 6ab1 71bd
000002f0: e6c6 47bd c8b8 b6bc 0b48 053e f920 e9bb
00000300: 370a 13bd 2bf7 753e 43bc ff3d 6246 3b3e
00000310: 2d77 993d 8b0b 023e 16e1 063d 9e04 2fbe
00000320: 6b5c 54bc 3021 f83d 6554 dfbd 4ed6 e4bd
00000330: d1e7 9fbb 5160 b73d 8cf7 613e fe26 39be
00000340: 46b7 7939 a13a 52bd a930 79bc 749b 12be
00000350: 4d38 00be c99a cdbd 5a0c 723c bd81 44bd
00000360: 9c9c d8bd 8cfe 9b3d 095d 51bc 5912 b1bd
00000370: 9bc1 2abd 6d57 abbd b45d 343b 0e71 2f3c
00000380: 4d1b 87be 5dc0 ffbd f496 2b3e 95a3 7bbe
00000390: 7065 3fbe 906e 453d e9a0 b7bd 0cd5 f03d
000003a0: 78e6 ddbd 4b60 fdbc 209d a73d e98a 5dbd
000003b0: aebd 90be 809d 5d3e 3a01 ca3d 7dd7 3cbd
000003c0: ea1f 2fbd 6d86 423e cb70 dc3c 2bdd e7bd
000003d0: 95c0 be3d 15e5 15be 5008 62bd fb2e 90bc
000003e0: fda0 4cbd 70b1 0f3d 99c8 583d f0e2 82bd
000003f0: f59d 793e 1b6d 9bba 7585 ebbd 1210 71bd
0.15647025 0.09691833 0.04009878 0.15979272 -0.07253355 -0.050283734 0.059502702 0.012219104
0.031314585 -0.06470826 0.20112096 0.15307963 0.05943144 -0.06278014 0.06261424 -0.16002534
-0.110699356 -0.102025695 0.006141364 0.117673196 0.19826041 -0.012405497 -0.31184763 0.16793971
-0.04015242 -0.09537161 0.015396424 0.10455576 -0.055135917 -0.07003752 0.095211804 0.0064344746
-0.2123529 -0.12709814 -0.04337389 -0.18214189 0.02017597 0.12818725 -0.07482362 0.0856936
-0.09948889 -0.066735156 0.14087643 -0.03089273 -0.055623773 -0.107524835 -0.07075524 -0.28889543
-0.0010746622 -0.07315747 0.081456445 0.08508727 -0.006173097 0.059111536 0.04567319 -0.12579167
-0.031538323 0.13858439 -0.029655717 -0.010178824 -0.020128215 -0.004235943 -0.04502614 -0.026251825
-0.016236952 0.008653549 0.01857025 -0.058855947 0.071297675 0.07514866 -0.14559172 0.10833159
0.10814658 -0.03164377 -0.019428028 -0.037246116 -0.07020781 -0.11309182 0.12331278 0.091276035
-0.08214457 -0.0803203 0.023379814 0.071951225 -0.053645916 0.02757878 -0.01063574 0.045878965
0.118085995 -0.19059998 0.05605527 0.11865363 0.12832186 -0.15364799 0.0047969613 0.014290871
0.041536964 0.058037437 0.051797427 -0.06277899 0.0127278445 -0.12020814 -0.03186749 0.04590362
-0.20333055 0.0047794078 0.014088698 -0.03597831 -0.03948884 0.063565455 -0.090719864 0.010825342
-0.027924493 -0.07563961 0.2623305 -0.0869169 0.054152485 0.008616177 0.09855404 0.01585443
-0.01143641 -0.030501282 0.078102425 -0.060482603 0.09511081 0.067463085 -0.019501733 -0.10720476
-0.04128515 0.15105653 0.026960988 -0.011213257 0.11970328 0.10756611 -0.022233741 -0.25214157
-0.032209318 -0.06768149 0.20359133 -0.060008727 -0.0029073148 0.15692441 -0.049866978 0.013037071
-0.08239949 -0.016157452 -0.017844645 0.07982638 -0.094555706 -0.04423615 -0.0717495 -0.25946844
0.0009162303 -0.07106559 0.047781464 -0.0077946763 -0.124982305 0.007862172 0.09404212 0.060380716
0.027241463 0.030985504 0.16891894 0.22466446 0.041490532 -0.07868469 0.045279805 0.085693695
-0.061293107 -0.0626819 0.15417327 0.008461987 -0.08513099 -0.08163013 0.024145061 0.037808035
-0.10711662 -0.054588255 0.11374913 -0.036285546 0.03277551 -0.09442278 -0.16771494 0.080747835
-0.09028936 -0.13336864 0.05064213 -0.059007086 -0.04877367 -0.022304907 0.13015763 -0.0071145264
-0.035898414 0.24020068 0.1248708 0.18288568 0.07493434 0.12699716 0.032929502 -0.17091605
-0.012961487 0.12115705 -0.10904769 -0.11173688 -0.0048799296 0.08953918 0.22067088 -0.1808128
0.00023814765 -0.051325444 -0.015209355 -0.14317113 -0.12521477 -0.100392886 0.014773453 -0.04797529
-0.10576746 0.0761691 -0.012778529 -0.08646078 -0.041688543 -0.083662845 0.0027521672 0.010708107
-0.26388016 -0.12487862 0.16756803 -0.2457412 -0.18691039 0.048201144 -0.08966238 0.117593855
-0.10834974 -0.030929705 0.08184266 -0.054087553 -0.28269714 0.21642113 0.09863515 -0.046103943
-0.042755045 0.18996592 0.026909253 -0.11321481 0.09314076 -0.14638169 -0.05518371 -0.017600527
-0.049958218 0.035081327 0.05292568 -0.06390941 0.24376662 -0.0011858077 -0.11500064 -0.058853216

predictor/bn4/beta f4 [50]
00000000: 9bd0 ca3c 925a 6ebe 5e53 80be 1cd0 cdbd
00000010: 280e 39be ff0c 84be 6d58 46be 362d 71be
00000020: 5a18 81be d1e0 6ebe 5622 14be ba60 a73d
00000030: 4b96 05be 58a4 e3bd aab2 c93b 5b89 b1bd
00000040: bfb3 44be ed66 60bd 3da5 7c3a 5e9f 72bd
00000050: 17ac 4ebe 0971 84be acbb 203d f7b7 33be
00000060: 2804 eabd b352 54be 48ad 97be b400 59be
00000070: ad97 36bd 4c0d 97bd 0e2d 25be d543 dabd
00000080: ce9f 3fbe 9d72 2cbe c6ed 3dbe 5e89 22bd
00000090: 090f a3bc cc77 16be 83f8 47bd 27db 38be
000000a0: 8f36 523b 4dd6 bcbe ae96 2fbe f5f1 cbbc
000000b0: 00a7 2fbe 0f3c 20be 7a44 2cbe 4ee6 43be
000000c0: eb62 09be a23c 72be
0.024757674 -0.23276737 -0.25063604 -0.10049459 -0.18071806 -0.25791165 -0.1936967 -0.23552403
-0.2521389 -0.23327948 -0.14466223 0.08172746 -0.13045613 -0.111153305 0.0061553316 -0.086687766
-0.19209193 -0.054785658 0.00096376595 -0.059234016 -0.20182835 -0.2586749 0.039241478 -0.17550646
-0.11426574 -0.20734672 -0.2962439 -0.21191674 -0.044578243 -0.07375583 -0.16130468 -0.10657469
-0.18713304 -0.16840596 -0.18547735 -0.039681785 -0.01990463 -0.14694136 -0.048820984 -0.1805235
0.0032075976 -0.3688225 -0.17147323 -0.024895648 -0.17153549 -0.1564791 -0.16822997 -0.19130823
-0.1341664 -0.23655942

predictor/bn4/gamma f4 [50]
00000000: 1fac 773f 7eb6 633f ac57 703f 11e5 693f
00000010: 6a7f 803f ed1f 743f 9ff4 723f e3d6 733f
00000020: a73c 903f 6005 743f 2bdd 753f 0515 8b3f
00000030: 9ce3 653f 90ce 803f c54d 7b3f 30da 9a3f
00000040: 27fe 763f c230 813f 3587 7e3f 60b3 843f
00000050: 957d 7a3f f2a7 6c3f f4d2 973f f03b 643f
00000060: 7a3c 673f d545 8d3f 97b1 803f aea8 633f
00000070: 8020 523f 380f 673f a756 7e3f 05c6 883f
00000080: 2529 693f f32e 893f 7f32 843f dcc4 683f
00000090: f5cf 873f 57af 783f 1d8e 823f da53 723f
000000a0: 7b84 693f d77f 9a3f 00a5 763f e003 863f
000000b0: 803f 813f 6c97 863f d662 893f c104 753f
000000c0: 760a 783f aee5 7e3f
0.9674701 0.88950336 0.93883777 0.9136515 1.0038884 0.95361215 0.9490451 0.95249766
1.126851 0.953207 0.960406 1.086579 0.8980043 1.0063038 0.9816554 1.2097836
0.96481556 1.0093005 0.9942506 1.0367241 0.9784787 0.92443764 1.1861253 0.8915396
0.90326655 1.1036936 1.0054196 0.8892926 0.8208084 0.90257597 0.9935097 1.0685431
0.91078407 1.0717453 1.032791 0.90925384 1.0610338 0.9714255 1.019962 0.946592
0.91217774 1.2070264 0.9634552 1.0469933 1.0097504 1.051496 1.0733287 0.9571038
0.9689096 0.99569213

predictor/bn4/avg_var f4 [50]
00000000: 7179 8a40 be65 2340 4b75 4d40 c661 3d40
00000010: 1b61 7840 b69c 8240 2ad4 9440 c6cf 3c40
00000020: f6f8 5440 fb23 5240 0cb4 3d40 3e66 5340
00000030: 24f0 4940 6964 8740 5a65 5e40 cfca 8240
00000040: a3a3 7a40 915f 3f40 cf3b 3c40 27f5 8e40
00000050: fad1 9140 fdba 5540 db12 4740 3b7d 6640
00000060: 1364 4140 d980 b740 5b55 8240 a7ca 3c40
00000070: 3c19 8540 c3fb 3740 eb9f 5640 1921 8b40
00000080: ec57 8b40 ffa8 5b40 d02c f340 a9b6 5940
00000090: a75c 3f40 16df b640 af0d 9340 b282 3f40
000000a0: 395d 4b40 6375 6140 d5f6 4e40 f1c8 5840
000000b0: 591b 7240 f797 4b40 257b 9040 c51a 4040
000000c0: e377 6940 2e28 7640
4.3273244 2.5530849 3.210284 2.9590926 3.8809268 4.0816298 4.650899 2.9501815
3.3276954 3.283446 2.9641142 3.3031154 3.155282 4.231007 3.474936 4.087257
3.9162376 2.990208 2.9411504 4.467426 4.556882 3.3395379 3.1105258 3.6013935
3.021733 5.7344785 4.0729194 2.949869 4.1593304 2.8747413 3.3535106 4.3477902
4.3544827 3.4321897 7.5992203 3.4017737 2.99003 5.714732 4.5954204 2.992352
3.1775649 3.5227897 3.2338154 3.3872645 3.7829192 3.1811502 4.5150323 3.001634
3.6479423 3.8462024

predictor/bn4/avg_mean f4 [50]
00000000: bcdb dc3d 3ba4 4cbf bcb8 a2bf fb20 babf
00000010: 6957 52bf 0339 6abf 5a13 0bc0 58a4 21bf
00000020: c48c 7ebf 5549 5c3e 4865 b4bf 59cf d2bf
00000030: 0828 febf 97f3 56bf ac64 dd3e 969b 1fc0
00000040: 7c43 40bf 1653 0bbf bdad 2e3f 0374 0bc0
00000050: 90cc 39c0 370d 1ebf 7e9a e5bf e5cf cc3d
00000060: 090b 99bf 69fb 9dbf a644 80bf 13cc c1bf
00000070: 1efe 1b3f 4597 fcbf cc52 00c0 3380 d73d
00000080: 226d a33e 1213 a6bf 90bb 0bc0 6978 c0be
00000090: 3a77 d1bf 3c2e f5bf ca32 b6be eba4 f1bf
000000a0: c2c1 38bf 7e18 05c0 5567 35bf 41bd 87bf
000000b0: 7a62 a33f ab7f b7bf d0c0 d6bf 76e4 32bf
000000c0: 02e7 18bf f352 8cbe
0.107840985 -0.79938096 -1.2712626 -1.4541315 -0.8216463 -0.9149324 -2.1730561 -0.63141394
-0.9943354 0.21512349 -1.4093409 -1.6469527 -1.9855967 -0.8396544 0.4324087 -2.4938712
-0.75102973 -0.54423654 0.68233854 -2.1789558 -2.9031105 -0.61738914 -1.7937772 0.1000059
-1.1956493 -1.2342349 -1.002095 -1.5140404 0.6093463 -1.9733664 -2.0050535 0.10522499
0.319192 -1.297457 -2.183323 -0.37591866 -1.636451 -1.9154735 -0.35585624 -1.8878454
-0.7217065 -2.07962 -0.708608 -1.0604631 1.2764428 -1.4335836 -1.6777592 -0.69879854
-0.5972749 -0.27407035

predictor/bn9/beta f4 [50]
00000000: 1968 623e d81c 563f 5d08 9c3e 9201 be3e
00000010: cd18 6abe 7923 a73e b8c5 8b3f 014a a2be
00000020: 3630 573e 186d 1a3e 1b69 b63e 482d 453e
00000030: 248c cb3e 7370 543e 8cf5 86be 8a60 283f
00000040: 5c81 58bd 2803 39be 82ef ba3e 7f12 84be
00000050: d00e e8bc deda 57be 8a60 843e 475c 16be
00000060: 5b13 8d3d b712 0ebe afc8 223f 589b b73e
00000070: c1c5 be3d 367d 703f abf9 f23e 7a50 a13e
00000080: 9ab5 d83e 873d b13e bd55 7abe 924f 4a3e
00000090: 3ebc 923e 055d e53e a9fe c43e 129d dfbd
000000a0: caea d63e a99f d43e 90f3 a13e 7828 853e
000000b0: 5e83 8f3e 7cda 1b3e 6381 803e 643d 5dbc
000000c0: 8e0c e3bd ae1f 9b3e
0.22110023 0.8363776 0.3047513 0.37110573 -0.22861023 0.3264425 1.0919714 -0.31697085
0.21014485 0.15080678 0.35627064 0.19255555 0.39755356 0.20746021 -0.26359212 0.65772307
-0.05285774 -0.1806761 0.36510855 -0.2579536 -0.028327376 -0.21079585 0.25854903 -0.14683639
0.068884574 -0.13874327 0.6358747 0.35860705 0.09315062 0.93941057 0.47456107 0.3150671
0.4232605 0.34617254 -0.24446769 0.19756916 0.28659242 0.4479753 0.3847554 -0.10918631
0.41976005 0.4152806 0.31631136 0.26007438 0.28029913 0.15220064 0.25098714 -0.013503406
-0.11086379 0.30297607

predictor/bn9/gamma f4 [50]
00000000: aba7 a53f 93d0 643f 2622 b33f d104 a83f
00000010: 8d9c 7d3f d546 a53f 2f18 803f a458 033f
00000020: ac4a 8e3f e2f1 983f 1965 173e b2dd ab3f
00000030: 3053 b73f a0b2 a23f e9d3 673f 6599 6c3f
00000040: 2935 5c3f 81ed 883f 183d a63f 9343 7f3f
00000050: 200c 773f d814 6e3f 5ae1 903f 1861 883f
00000060: 8473 a23f 120b 633f 6b7e 6e3f af38 aa3f
00000070: baea 8b3f d395 733f 81aa 0a40 4a07 a33f
00000080: 6e07 b63f 9315 b13f 95a1 663f d7c6 af3f
00000090: dc89 923f 72a6 c53f 5208 c43f dcab 6d3f
000000a0: 19da cf3f 76ca ac3f 574a bc3f 4278 9f3f
000000b0: 0a7f d63f cb72 8e3f fc6a 8b3f 89b6 953f
000000c0: 5ca3 823f 58a1 b13f
1.2941793 0.8938076 1.3994796 1.312647 0.99067 1.2912241 1.000738 0.5130713
1.1116538 1.1948817 0.1478466 1.3427031 1.4322262 1.2710762 0.90557724 0.9242156
0.86018616 1.069748 1.2987394 0.99712485 0.96502876 0.93000555 1.1318772 1.0654631
1.2691503 0.88688767 0.9316165 1.3298548 1.0931008 0.9515049 2.1666567 1.27366
1.4221017 1.3834709 0.90090305 1.3732556 1.1448321 1.544142 1.5315039 0.9284036
1.6238433 1.3499286 1.4710187 1.2458575 1.6757519 1.1128782 1.0892024 1.169633
1.0206103 1.3877363

predictor/bn9/avg_var f4 [50]
00000000: 32c8 ad40 2820 1641 9813 9140 a930 a940
00000010: 2abb bd40 70e5 d040 9d99 f640 4091 7441
00000020: 01cb 8040 5092 a040 ed26 8041 5ed6 9240
00000030: 55b4 8840 a7d4 6e40 2901 9240 f9e5 f940
00000040: 65e8 1241 a2df 4340 ee60 aa40 8b84 c840
00000050: b9df 9540 2e46 6140 bd26 bc40 acb7 1740
00000060: 7e8e 2840 3e47 fe40 a670 0741 28de c940
00000070: 0271 4440 785b f940 8028 da40 9f1f 9440
00000080: 2aea de40 5035 e040 3384 9640 8cf9 2e40
00000090: c8b1 7e40 5f23 8040 4c59 c340 2acf 5940
000000a0: 8459 ab40 f1cf b140 bde2 6540 8e10 8240
000000b0: a516 1641 e3a6 4440 1dd1 4c40 7972 f13f
000000c0: 3485 8340 6a00 7a40
5.430688 9.382851 4.533642 5.28719 5.929097 6.5280075 7.7062516 15.285461
4.0247808 5.0178604 16.019007 4.588668 4.272013 3.7317293 4.5626416 7.809323
9.181737 3.0605245 5.324332 6.2661796 4.68356 3.5199084 5.879729 2.3705854
2.633697 7.9461966 8.465002 6.3083687 3.0693974 7.7924156 6.817444 4.62886
6.9660845 7.006508 4.7036376 2.7339811 3.979601 4.0043178 6.1046505 3.4032693
5.354677 5.5566335 3.591964 4.064521 9.380528 3.072686 3.2002633 1.8863059
4.11001 3.9062753

predictor/bn9/avg_mean f4 [50]
00000000: aaeb 7740 6b69 c7c0 53f4 503f 8cc4 94bf
00000010: c92a 81c0 b682 2040 213b afc0 c4b5 e8c0
00000020: bd02 4e3e 8be0 303f ef67 dcc0 3966 d63f
00000030: 76fe 9c3f cb9b 64be 0921 8cc0 9b6b b4c0
00000040: 2df4 abc0 3e96 7a3f f0de 47bf 84e0 61c0
00000050: a11d afc0 061c 75c0 a974 2640 e8d1 12c0
00000060: c795 af3f 009d 9bc0 64c7 ccc0 3273 91bf
00000070: 947f 9e3e 4c3a b7c0 9fa7 5a3f fe60 07bf
00000080: 2c25 81bf efc1 953f c815 8dc0 fcc9 a63f
00000090: 9ffe 2abf 71e7 50bf c47f 0d3f d1bc 67c0
000000a0: 92f2 c8be d733 103f a868 4bbe b2e3 223f
000000b0: bacf bc3f 5932 823f 76bb 133f c7c8 d43f
000000c0: ea69 babf c545 a1be
3.8737588 -6.2316184 0.8162281 -1.1622481 -4.036473 2.507978 -5.475968 -7.272188
0.20118232 0.69092625 -6.887687 1.6749946 1.2265155 -0.22325055 -4.3790326 -5.6381354
-5.3735566 0.978855 -0.7807455 -3.5293283 -5.472367 -3.8298354 2.6008704 -2.2940617
1.3717583 -4.862915 -6.3993397 -1.136328 0.3095671 -5.7258663 0.8541202 -0.52882373
-1.0089469 1.1699809 -4.408909 1.3030391 -0.6679477 -0.8160315 0.5527308 -3.6208994
-0.39247566 0.563291 -0.19864142 0.63628685 1.4750893 1.0171615 0.5770792 1.6623772
-1.4563572 -0.31498542

predictor/conv9/W f4 [50, 50, 3, 3]
00000000: 1545 85bd be5d 923d 315c f53d 1c6f 3cbe
00000010: 4b17 92bd bd19 39bd fdc8 b83c 455b 64bd
00000020: 7ab0 1e3e c386 cc3d 4ef1 81bd 8894 32bc
00000030: 6fb6 26bd 188d db3d 0c12 003c 051b 13bd
00000040: 9e99 92bd cc18 853d 38e1 333c 6f3d 56bd
00000050: 33c5 293e 3aff 353c 5b0c 083e dea8 4fbc
00000060: 1447 16bd 30ac b8bd 9f80 593e e8a0 b1bd
00000070: 7eb3 9b3d 3eec 583d ec81 843a 1958 103e
00000080: fea4 e13c cc27 8f3c bc14 ae3c 0be2 bfbd
00000090: 9b87 55bc b2b6 613c a66b 33bd fb7c 3b3e
000000a0: b12d 4a3d dd4f 26be b54e c6bd 2e51 023e
000000b0: ebc6 d03d 9527 963d a552 c73d c9e3 6cbc
000000c0: 0edc d03c 148b b3bc e497 6dbd d4f9 1ebe
000000d0: 7163 84bc 7831 cfbd 9d81 613e cbc2 bc3d
000000e0: 2208 1f3e 07f9 c93c c4b7 813d ac48 983c
000000f0: a892 2fbd 3158 61bb 8610 e3bc 8fc8 103e
00000100: 91c7 fa3c c292 33bd 17a1 1e3e bd6e 543e
00000110: f22a ab3d c42a 94bd 03fe 463c 1667 fe3d
00000120: 38c9 1b3b a3eb 9f3d 477e 223e b5ab 193e
00000130: 73c5 753e 8656 2b3e 375a adbc 654b babc
00000140: 563d 1c3e c6fe 86bd df70 69bd dac9 fcbb
00000150: 156a f43d 7e79 2ebe 865f 0ebc 681a debd
00000160: f5d8 0c3e 27d5 12bd b435 e5bd 0db2 8f3d
00000170: d683 e1bc 99ef 14be beea 8c3d 2b6a 733d
00000180: 0f44 d9bd cf8c 32bc c58f 713c 5171 d73d
00000190: 11d6 e33c 616e c23d 098e 603e 2aa2 343d
000001a0: 19a2 4f3c 7245 5dba ac14 54bd a3c4 3fba
000001b0: c03d 453e 82f6 ad3d c0f1 1f3e 3f80 4a3d
000001c0: 4cfa 383e c6e1 26bd 8a28 c7bc 04e9 6ebd
000001d0: f818 033e 184b 6b3e 65df 9fbd b1f9 113d
000001e0: 022d 013e 99d9 10bb f55b e43d 565e 933c
000001f0: 2df1 063c 1e68 c5bd f4af ee39 c2c0 35bd
00000200: db7d 8e3d 69cc c13d f79b e73c 6856 6c3d
00000210: bc0d a73d 6e1a b2bd e482 a2bb ac0f fcbd
00000220: cea5 21bd 50a3 173e 2d3f f43c 3261 d93c
00000230: a4e3 553e 06a6 37be bba4 c0bc 2b68 283e
00000240: 893f 74bd cfa9 cb3c 8bf1 c13d 419d f83d
00000250: 47f2 27be 5257 9abd 0812 cc3b d05e babd
00000260: 0b84 b93d 3f28 0d3e 2fa7 b4bd f1c4 ba3d
00000270: 7e7a 023e ddbb 6d3d fece 3b3c cf2b 13be
00000280: fecb 873d 8b30 c03d 6e56 b2bd 08a0 793d
00000290: 2ba1 70bd ba3e 013d 7f61 d73d 79af a2bb
000002a0: 1ab8 bd3d ed79 89bd d7a9 5cbd f321 983d
000002b0: befc fa3c 625b e63c 24eb 2f3e 7991 243e
000002c0: 6864 cbbc 1c21 ba3c 2468 10be 6f9d 283e
000002d0: 8a68 073d 137f 2a3e eb7c 883e e465 e0bd
000002e0: a9cc 6e3d 619d 853c 383b 11be 6078 c0bd
000002f0: 8e55 b43c 7607 f43c 0712 043e 33ae 8d3d
00000300: 62b7 003e 6468 133d c542 253e edf1 e13d
00000310: 02d4 8d3d 4e2a e4bc 478c b73c bfd1 90bc
00000320: f4ac 5c3d 3bda 853d 4144 293d 89d1 913c
00000330: 12ff 0e3d 6bbd e63c 4157 4a3e 4ef4 5d3e
00000340: 6c68 7abc e20b 5bbe 6ffe 173e ed27 003d
00000350: c9c5 e8bd e806 b9bd 6fdf c7bc dfb6 713e
00000360: 6268 683e 0721 283e bb01 c13d d245 36bd
00000370: 8b12 d33b 8754 063e 585d eb3d 1e7b c43d
00000380: 130d 263d 98c2 2a3e 3bb8 193e b0bf 9f3d
00000390: 1013 cdbd 6a51 673d 8ac9 e7bd f559 cabd
000003a0: 649d a4bc e3b7 2e3e 85c5 3c3e e8d3 023e
000003b0: 502d 6e3b 713a cf3c 816b c9bd 2ad1 553d
000003c0: df1a 323d 1c3b acbd c93f 15bc 38bb 3b3e
000003d0: 96a0 abbc 64f8 7fbc f8e1 e5bc 3b8e 903d
000003e0: 96d9 3d3d c919 363d b573 fb3d 18e9 2fbc
000003f0: e0f4 ea3c a226 3abe 1dd9 91bd 5935 9b3d
-0.06507317 0.07146786 0.11980475 -0.1840176 -0.07133349 -0.04519056 0.022556776 -0.055751104
0.15497008 0.09986641 -0.06344853 -0.01089967 -0.040701326 0.10720271 0.007816803 -0.03591444
-0.071582064 0.0649887 0.010978989 -0.05230468 0.16579132 0.011108214 0.13285963 -0.012674538
-0.03668888 -0.09017217 0.21240471 -0.086732686 0.07602595 0.052959673 0.001010952 0.14096107
0.027544495 0.017475031 0.021250121 -0.09369286 -0.013032819 0.013776468 -0.043803833 0.18309395
0.04935998 -0.16241403 -0.09682981 0.1272628 0.101941906 0.073317684 0.0973256 -0.014458605
0.025495555 -0.021916904 -0.058006182 -0.1552499 -0.016160699 -0.10116857 0.220221 0.09216841
0.15530446 0.024654878 0.06333879 0.01858934 -0.04286447 -0.0034384842 -0.02771784 0.14139007
0.030612739 -0.04384113 0.15491138 0.20745368 0.083578005 -0.072347194 0.012145522 0.12422006
0.0023771059 0.07808616 0.15868483 0.15006907 0.24001102 0.16732225 -0.021161182 -0.022741029
0.15257773 -0.06591563 -0.056992408 -0.0077144923 0.11934296 -0.17038533 -0.008689767 -0.1084488
0.13754638 -0.03584781 -0.11191884 0.07016382 -0.027528685 -0.14544524 0.06880711 0.05942742
-0.10608684 -0.010897829 0.01474375 0.1051966 0.027812036 0.09493709 0.21929182 0.044099964
0.012672924 -0.0008440829 -0.051777527 -0.0007315373 0.19261837 0.08494283 0.15619564 0.04943871
0.1806423 -0.040742658 -0.024311323 -0.05832769 0.12802494 0.22977865 -0.07806281 0.035638515
0.12614825 -0.0022102355 0.11150352 0.017989319 0.008236212 -0.096389994 0.00045525993 -0.04437328
0.06957599 0.09462816 0.028272612 0.05769959 0.081569165 -0.08696447 -0.004959451 -0.12307677
-0.039464764 0.14808393 0.02981528 0.026535604 0.2088762 -0.17934427 -0.02351605 0.16445987
-0.059630904 0.024861244 0.09469899 0.12139369 -0.16401015 -0.07536186 0.0062277354 -0.09100115
0.09058388 0.13784884 -0.0882095 0.09119595 0.1274204 0.05804049 0.011462925 -0.1437218
0.06630705 0.09384259 -0.087078914 0.060943633 -0.05874745 0.03155396 0.10516643 -0.0049647656
0.0926363 -0.067127086 -0.05387291 0.0742835 0.030638095 0.028119747 0.17179543 0.16071118
-0.02482815 0.022720866 -0.14102226 0.16466306 0.03305868 0.16650037 0.26657805 -0.10956934
0.058300648 0.016310396 -0.14182746 -0.0939796 0.022013452 0.029788714 0.12897502 0.069179915
0.12569955 0.035988227 0.16138752 0.11032472 0.06925203 -0.027852204 0.022405757 -0.01767814
0.05387588 0.06535765 0.041324858 0.01780011 0.034911223 0.028166493 0.19759847 0.21675226
-0.015283685 -0.21391252 0.14843152 0.031288076 -0.113658495 -0.090345204 -0.024398534 0.23604916
0.22696069 0.16418849 0.09424158 -0.04450018 0.0064414195 0.13118182 0.11492413 0.09593795
0.040539812 0.16675794 0.15011685 0.07800233 -0.100134015 0.056474127 -0.113177374 -0.09880439
-0.020094581 0.17062335 0.18434723 0.12776148 0.0036342926 0.025296422 -0.09834958 0.052201428
0.043482658 -0.08409712 -0.009109446 0.18333137 -0.020950597 -0.015623186 -0.028061852 0.07058378
0.046350084 0.044458184 0.12277929 -0.010736726 0.028681219 -0.181788 -0.07121489 0.07578535

predictor/conv4/W f4 [50, 50, 3, 3]
00000000: 98ee 383d 553c 3b3b c520 ca3d 9f23 be3d
00000010: e87d 30bd 31c7 273e 85b4 0dbd 3f88 94bc
00000020: d531 bdbd a28e 113e cc75 953d 2bb9 203d
00000030: 7859 05be eb6e 88bd 16b4 9ebd dde2 56bc
00000040: 80e8 3f3d dcc3 6c3d 5fbb 5a3d f8cc 8b3d
00000050: 7254 ffbc 6415 303e 3c21 65be fd33 233e
00000060: 2280 f43b 84d3 22bd 8f6a 1cbc 1c94 f6bc
00000070: 4453 8abd 034a f33d bb2c d73d 9fe2 083e
00000080: 0d0e 8dbd 4e2d a8bc 79b5 b8bd 36d6 773d
00000090: 2926 46bd 37da d03c 3eaa 39bd da05 6fbd
000000a0: 700d 18bd 59b4 c5bd 2f36 68bd 7204 f6bc
000000b0: 44fd 2ebc 5921 b63c bbdb 37be a841 da3d
000000c0: 2eb6 a83e cf67 d43c 741c 893d 91e0 dbbd
000000d0: 2a1f a83d 9bef c3bc 6b9e 1bbe 14d9 23be
000000e0: 6bf5 4bbb 0e58 55bd e145 afbd 98a0 bb3d
000000f0: 0011 8f3c 021e 63be 315a 883d 3777 073e
00000100: b424 a33d 4c07 2d3e 712a 803d 6028 913b
00000110: 83a5 56bd edbd 0b3e e55b 513c 99a4 04bd
00000120: 2331 c33d aeaf 303d 0285 adbd dc4b 753c
00000130: 6106 253c d9a0 32bc c414 58be 3f57 e6bb
00000140: d5a2 3bbe 988b c33d 2359 e0bd aa20 f73c
00000150: 8a89 aa3d 29ab 5b3d 3e26 b33d 5aa1 f1bd
00000160: 7590 c33d abee e03c a7d7 083d 807c dfbd
00000170: 3eda 63bd 9756 153e 8c34 1b3e eede 2f3e
00000180: 1cad a5bd f19f 1ebd 06fb a33e a684 e63d
00000190: 609c 013e 5df4 383d 564c 493c 8beb ab3b
000001a0: b399 903d 710d e7bd f23a be3d 76c1 143e
000001b0: 2796 dd3d ad83 67be d75d adbd 32ff 24be
000001c0: bcdb 053d 69cd 253e 4da2 833c 26de 3cbe
000001d0: d4bf debd 9c77 783c 4a83 b7bd 5da8 87bb
000001e0: 42e0 de3b 0ae2 64ba 2668 333d cb01 b6bd
000001f0: a728 61bd 2c34 31bd f7d2 c8bd 6003 483d
00000200: 5e48 0c3e c1d2 d3bc 7e60 f93d fd5d 54be
00000210: 2f1c 2dbd cf16 13be 9397 6ebb 1e4b 0bbd
00000220: 93c3 1dbc e985 b43c 92ec 45be c420 4abe
00000230: 5a30 abbd 9f4d 71bd f749 c0bd a640 5cbe
00000240: 0585 4a3d 2bc1 143e 5462 edbd 273e 2a3e
00000250: 2a59 13bd bad4 4dba fdde 7e3c be01 c2bc
00000260: f414 d2bd eb15 3b3e d91e 8dbd 6d4f 923c
00000270: cddc 4dbc bce7 98bc 95eb 39be ba65 b2bd
00000280: e2d5 48be a450 3abe 744a 103e 41d2 5cbd
00000290: ea58 80bb c6f3 c4bd 5e79 cb3d eff8 273d
000002a0: 0c71 693e c1ff 04be 2740 0bbd 6eb4 923d
000002b0: 192a 473d d947 9e3d f75d a13d 0c2f c73c
000002c0: c772 da3d 772d d6bd c499 4fbe 707c 8b3c
000002d0: b01e 2abe 75e3 91be 52ad 6a3d 2363 55be
000002e0: 2689 07bd adb7 833d 6b03 ba3c cda8 15bd
000002f0: 1aec 393d 6c3c 243e 7c3c c1bd 2e8b 703c
00000300: e802 29be 2f1b b0bc 2f55 663d 42d6 aabc
00000310: 72db e8bc 1917 023c 8ed8 0d3e d298 66bc
00000320: 15ed 493c ce10 2c3e 2ea6 063d a68d 58bd
00000330: 2d7c 3dbc 67f8 b23d cc17 3d3e 192a d23c
00000340: a626 6b3d ae4c 6b3d 7899 04bd 96da 6c3c
00000350: 14de c23d 8267 70bd 5122 ab3d 3da7 8b3c
00000360: 05a3 06bc 370a e1bd 5e2f 153d 050f cabd
00000370: b365 133d a6d0 273b a57d dd3c 2c81 24be
00000380: 91ad d6bd 36ac d33d 0291 623c f079 42bd
00000390: bd13 db3d 755b c1bd 09bc 833d d379 f8bd
000003a0: 42ad 443e 8920 f93c 8456 f8bc 0003 8f3b
000003b0: 69ff df3c 42fe a23c c17d 5d3d 4285 023e
000003c0: 7488 bcbd e621 3b3d 9f25 473e 610a ae3b
000003d0: c3d2 403d 2572 19bd fbe6 df3c 7103 2f3e
000003e0: aa15 bf3d 8ec7 d53d cb6c 1e3e 48cd 083e
000003f0: 5cfc 0f3e d8dd 06be 4160 94bd bb87 c83d
0.045149416 0.0028569896 0.098695315 0.09284138 -0.043088824 0.16384579 -0.034595985 -0.018131373
-0.0923802 0.14214566 0.072978586 0.03923909 -0.13022411 -0.06661781 -0.077491924 -0.013115612
0.04685259 0.057803974 0.053401347 0.06826204 -0.031168196 0.1719566 -0.22375959 0.159378
0.0074615637 -0.0397525 -0.00954689 -0.03009992 -0.06754163 0.11879351 0.105065785 0.13367699
-0.068874456 -0.020529415 -0.09018988 0.06050702 -0.048376236 0.025494678 -0.04532837 -0.05835519
-0.03712219 -0.09653539 -0.0566923 -0.030031417 -0.0106805 0.022232698 -0.17954914 0.10657054
0.32951492 0.025928406 0.0669488 -0.10736192 0.08209069 -0.023917964 -0.1519715 -0.16000777
-0.0031121622 -0.05208593 -0.0855825 0.0916149 0.01746416 -0.22179416 0.06657828 0.1322907
0.07965985 0.16897315 0.06258095 0.004429862 -0.052403938 0.1364667 0.012778257 -0.032383535
0.095308565 0.04313629 -0.08472635 0.0149717 0.010072322 -0.010902607 -0.21101671 -0.0070294435
-0.18323834 0.0954811 -0.109545015 0.030166943 0.08327015 0.053630028 0.087475285 -0.117983535
0.09549037 0.027457556 0.033408787 -0.10912418 -0.055628054 0.14583813 0.15156764 0.17174885
-0.080896586 -0.03872675 0.32027453 0.112557694 0.12657309 0.045154918 0.012286266 0.005246585
0.07060566 -0.112818606 0.09288587 0.14526924 0.10819655 -0.22608824 -0.08465164 -0.16112974
0.03268026 0.16191639 0.016068602 -0.18444118 -0.10876432 0.015165236 -0.08960588 -0.0041399435
0.006801636 -0.0008731192 0.043800496 -0.08887061 -0.05497041 -0.043262646 -0.09805863 0.048831344
0.13699481 -0.025857331 0.121766075 -0.20738979 -0.042263206 -0.1436417 -0.0036406263 -0.034007184
-0.009629148 0.02203651 -0.19328526 -0.19739062 -0.08358832 -0.058911916 -0.09389108 -0.21509036
0.049443264 0.14526813 -0.1159102 0.16625272 -0.035973705 -0.0007851828 0.015556094 -0.023682471
-0.10257903 0.1827008 -0.06890649 0.017860139 -0.01256485 -0.018665187 -0.18156274 -0.08710809
-0.1961284 -0.18194824 0.14090902 -0.05391145 -0.0039168494 -0.096168086 0.09935258 0.041008886
0.2279703 -0.12988187 -0.033996727 0.071633205 0.04862413 0.077285476 0.078792505 0.024314426
0.10666423 -0.104578905 -0.202735 0.01702711 -0.16613269 -0.28493848 0.057294197 -0.20838599
-0.03308978 0.06431518 0.022706708 -0.036537934 0.04539118 0.16038674 -0.094353646 0.0146816205
-0.16505015 -0.021497337 0.05623358 -0.02085412 -0.028424952 0.007940077 0.1385214 -0.014074521
0.012324591 0.16803285 0.032873325 -0.05286946 -0.01156525 0.08738785 0.18466109 0.02565484
0.057409905 0.057446174 -0.03237292 0.014456412 0.09515014 -0.058692463 0.08356155 0.017047519
-0.008217578 -0.109882765 0.036422126 -0.09866146 0.03598566 0.0025606542 0.027037451 -0.160649
-0.10482324 0.10335581 0.013828518 -0.04747957 0.10697124 -0.09441272 0.06432349 -0.12132611
0.19206718 0.030411022 -0.030314691 0.0043643713 0.027343469 0.01989663 0.054075006 0.12746146
-0.09205714 0.045686625 0.19447945 0.005311296 0.047075998 -0.037462372 0.02733182 0.17091157
0.09330304 0.10438453 0.15471189 0.13359559 0.14061111 -0.13170564 -0.072449215 0.097915135

predictor/conv1/W f4 [50, 1, 3, 3]
00000000: fb27 bbbd 7890 d1bc 7bd3 27ba 4a72 04be
00000010: 94f5 bb3e 6b22 aabc df57 fabe 67ad 073f
00000020: 75bd 3fbf 624c b33e 3086 cabe 6899 813e
00000030: 865f 85bf 0360 a83d 401b 0fbf d14b 2ebe
00000040: 48f0 ec3d 1ac4 373e a1ab c3be 064d 003f
00000050: 8145 523f 59e8 99bc b1d3 f9bd b2e4 0ebe
00000060: 6c4d 283d 9a9c a3be 772e 753e 175f 86bd
00000070: 3af0 0b3f 9bd3 fabc f123 3e3d 3b57 bcbe
00000080: 5427 a0bc 015c 693d e429 a3bd d74f 02be
00000090: 4607 6d3d ea65 43be 199e dabd b252 0f3e
000000a0: 657c d93e 1aed 7cbf e0e1 113e 314b 4f3e
000000b0: d3a4 cabe d1e1 1d3e f987 a7be 5017 ee3d
000000c0: a3e1 d2be c93a c03e 28f3 863f 1e98 363f
000000d0: fdfa a63d 0225 ed3e 012a efbe 5d79 0fbf
000000e0: 7258 043c 6e20 c839 97a8 4a3d 1437 293d
000000f0: bf75 9b3e 079e ea3d 6b98 14be 799a a63d
00000100: f1c7 88bf ddd8 db3d 5d7e ca3c 3c25 893e
00000110: 627b cc3c 8224 75bd 24fe 013b de9d 69bd
00000120: 3f68 0bbd 1a25 253f ee07 37be 8d2c 3abe
00000130: 24e7 683b cc16 503e 1f3c 95bd 8734 583d
00000140: cf22 3a3e c400 7dbb 6166 003d ae45 3f3e
00000150: 4411 3abd a441 043e dc5a 1cbf 7f1c 4fbd
00000160: ae95 973e 0058 07be 702b 16bf 4800 373e
00000170: 8f0e cd3e b794 933e 38ec 883e d894 b83c
00000180: f9c0 e23e 396e 363e fbf5 18bf ab4f 533c
00000190: 688e d73a b18e 9ebe 922b 823a 0ae5 b9be
000001a0: c59d 87be 556b a53d 116a a83e 4d95 313e
000001b0: 0e58 833e 80e7 6abe 1f6d 8b3d f290 2f3d
000001c0: 1ea8 b6be 6294 683e f222 b03e c16d 173d
000001d0: e9a7 a93e 51dc 4c3f 9795 64bd 24c7 ec3e
000001e0: c7fb dcbd 50e3 b3ba b198 523e fa27 703e
000001f0: 2a4c f03d 1cee 1a3e 872e 81be 871d 89be
00000200: 204a 3c3f cf84 e93c 1f8b 7b3f c7d4 45be
00000210: 4f85 513c e56a 333f f06b 793e b471 2dbd
00000220: a8d9 21bd 4f18 47bf 70eb 583e 431b 033e
00000230: 1e27 503e d249 b73d b138 68be 2a79 613d
00000240: f1de f3be 7dbd 903e 42d5 95be 1353 edbd
00000250: 168e 223e 25dc 003d 4b8a 183d 7385 bd3d
00000260: aa90 68bc 9e4e 93be 02c1 2d3e dca4 2f3e
00000270: ad32 e8bd 727f 9d3e f309 183d ca7f e4bd
00000280: ac02 1b3f c566 7fbe 611d c43e ab8f b03e
00000290: 8d41 7f3e b96b 3bbe 6091 f53e fe1b 40be
000002a0: 93a9 043e 1cce 083e ed21 aebe 73ba 12ba
000002b0: f271 3a3d 4053 22bd b6f4 633c a1cd 043e
000002c0: b23b 313e 1d54 103e a5d6 8ebf e11e 243c
000002d0: 7557 80be e6e0 e4be 4c9d 903d 5e4e ec3e
000002e0: 58bc fabe 8263 48be 09f8 f83e 7233 b53e
000002f0: 8c48 6dbe 9bfa b3bd 6c50 56bf 9b2f 2d3f
00000300: e698 bb3e 5983 f4bc 0e4e 42bd 5c49 07bd
00000310: 114e 593e 3f54 7abe d01b 07bf 2fd8 563e
00000320: 6e4b b73e 2e45 a4be 5439 ebbe 5554 253e
00000330: e677 ea3e fb7f ff3e d9c0 88be 0615 13be
00000340: 6073 13be 38f4 c4bd e35e 943e 0459 c13e
00000350: c02c 65be 30c6 08bd 757a 88be 0673 bfbe
00000360: cd52 2ebe 5d84 cf3e c494 3a3d e52f 4d3f
00000370: 6a98 64bd 4b6c 74be 41e5 b13e a933 13bb
00000380: 962a 1fbd a8e3 323f 70a1 833d 32f4 b23d
00000390: 9af9 49be 99ac b03d 86c5 b8be f14d b63e
000003a0: 0ab8 153d dfbd 063c 29b7 09be 981a c03d
000003b0: a1f1 b03c f279 86bf 9392 04be 2c92 3c3e
000003c0: b4b7 713e 7938 91bf a009 5bbe 2d55 703e
000003d0: 35c3 743e fb9c 82be efc3 babd bb7e 80be
000003e0: e0a3 8abe 6615 5f3f e004 763d 78f2 00bf
000003f0: 2793 9f3d e2f2 f1bc c38f 06bf 3658 193e
-0.09138485 -0.025581583 -0.00064020575 -0.12934223 0.367108 -0.020768365 -0.48895165 0.52998966
-0.74898463 0.35019213 -0.39555502 0.25312352 -1.0419776 0.08221438 -0.55900955 -0.17021109
0.115692675 0.179459 -0.3821688 0.5011753 0.82137305 -0.01878755 -0.1219858 -0.13954428
0.04108946 -0.31955415 0.23943506 -0.06561106 0.5466343 -0.03061848 0.046420995 -0.36785302
-0.019550003 0.056972507 -0.079669744 -0.12725769 0.057868265 -0.19081846 -0.10674686 0.1399639
0.42477718 -0.9879929 0.1424632 0.20243527 -0.39578876 0.15418173 -0.32720926 0.1162554
-0.41187772 0.3754485 1.0542955 0.7132586 0.08153341 0.46317297 -0.46711734 -0.5604456
0.008077728 0.00038171135 0.049477186 0.041312292 0.3036327 0.114559226 -0.14511268 0.08134932
-1.0686017 0.10734723 0.024718458 0.2678622 0.024961177 -0.05984927 0.0019835318 -0.05703532
-0.034034964 0.6450974 -0.17874119 -0.18181057 0.0035538161 0.20321196 -0.07286858 0.05278447
0.18177341 -0.0038605193 0.031347636 0.18678924 -0.045426622 0.12915665 -0.6107614 -0.050564285
0.29606384 -0.13217163 -0.5866003 0.17871201 0.4005017 0.28824398 0.2674272 0.022531912
0.4428785 0.17815484 -0.59750336 0.012897412 0.0016445639 -0.3096824 0.0009931198 -0.36307555
-0.26487556 0.080771126 0.32893422 0.1734211 0.25653118 -0.22939873 0.068079226 0.04286284
-0.35675138 0.22712854 0.3440166 0.036969904 0.33135918 0.80023676 -0.055806722 0.46245682
-0.1079021 -0.0013724361 0.2056606 0.2345275 0.11733277 0.15129894 -0.2523081 -0.2678034
0.73550606 0.02850571 0.98259157 -0.1931945 0.012788131 0.70084983 0.24357581 -0.042344764
-0.039514214 -0.77771467 0.21183562 0.12803368 0.20327422 0.08949627 -0.22677876 0.05504719
-0.47631028 0.28269568 -0.29264265 -0.11588111 0.15874514 0.031459946 0.03724126 0.09253969
-0.014194647 -0.28770918 0.16968158 0.17152733 -0.11337791 0.30761296 0.037118863 -0.11157186
0.6055095 -0.24941547 0.38303664 0.3448461 0.2492735 -0.18302812 0.47962475 -0.18760678
0.12955312 0.13359874 -0.34010258 -0.0005597241 0.045518823 -0.039630175 0.013913324 0.12969066
0.17307928 0.14094587 -1.1159254 0.010017128 -0.25066724 -0.44702834 0.07061252 0.4615354
-0.4897182 -0.19569209 0.48626736 0.35390812 -0.23172206 -0.087880336 -0.83716464 0.67650765
0.3664009 -0.029847788 -0.04743772 -0.033028945 0.21221186 -0.244462 -0.52776814 0.20980905
0.35799736 -0.3208403 -0.45942175 0.16145451 0.457946 0.4990233 -0.2670963 -0.14363489
-0.14399481 -0.096168935 0.28978643 0.37763226 -0.22380352 -0.03339213 -0.26655927 -0.37392443
-0.17023773 0.40530673 0.04555203 0.80151206 -0.055809416 -0.23869435 0.3474522 -0.0022461212
-0.038858972 0.69878626 0.06427276 0.08737983 -0.19724122 0.086266704 -0.36088198 0.3560634
0.036552466 0.00822398 -0.13448776 0.09380072 0.021599593 -1.0505965 -0.12946539 0.18415135
0.23605233 -1.1345359 -0.2139039 0.23469992 0.2390259 -0.25510392 -0.091194026 -0.25096688
-0.27078152 0.87142026 0.060063243 -0.5036998 0.07791739 -0.02953476 -0.5256311 0.14975056

predictor/bn6/beta f4 [50]
00000000: 54f9 57be 9968 59bc f7ea 39be 33a2 0c3c
00000010: 1ee2 19be 0629 a0bd edce 00be e554 a8be
00000020: f882 35be 2082 77be a312 05be 4433 7abe
00000030: 488b 1dbe 8104 80be df1a 3dbd 1da8 8bbe
00000040: 36e5 51be 87d0 363c 33aa 57bd 040e 2dbe
00000050: 99c7 8bbe e9b2 51be 0c7b 27be c199 29bd
00000060: d67a 7ebe d3e0 37bd 380f f3bd fd5f 7bbe
00000070: 3b9c 03be e051 3cbe c44f 3ebd 29d9 e2bd
00000080: 300f 03be 0ec7 87be 18e4 78bd 32cb 03be
00000090: 5d05 70be 8173 c2bd f9c5 9abe 2934 d1bd
000000a0: 9365 b9bc 7378 96bd 601d 80be 662c 07be
000000b0: ab31 84be a0d6 2bbe 6e89 22be 9c66 f1bd
000000c0: 76ef 763d ecd7 34be
-0.21091205 -0.013269567 -0.18156038 0.008583593 -0.15027663 -0.078203246 -0.12578936 -0.3287727
-0.17725742 -0.24170732 -0.1299539 -0.24433619 -0.15385163 -0.25003436 -0.046168204 -0.27276698
-0.20497593 0.011158115 -0.05265255 -0.16899878 -0.27300718 -0.20478405 -0.16355532 -0.041406397
-0.24851546 -0.044892143 -0.11868137 -0.24548335 -0.12852566 -0.18390608 -0.04646279 -0.11076576
-0.12798762 -0.26519054 -0.060764402 -0.12870482 -0.23439546 -0.09494687 -0.30229166 -0.10215027
-0.022631442 -0.073471926 -0.2502241 -0.1320053 -0.25819144 -0.16781092 -0.15872738 -0.11787149
0.06028696 -0.17660493

predictor/bn6/gamma f4 [50]
00000000: bad3 853f 6792 833f b3fe 933f dde1 7f3f
00000010: b41a 7a3f c1f5 7c3f 574a 783f ac83 783f
00000020: ba05 883f 291b 773f 1c2e 783f 9567 723f
00000030: eab2 673f 325a 8b3f 584d 6e3f 0276 853f
00000040: 69d3 743f 5bbe 8d3f 87c9 8b3f c072 623f
00000050: 6590 743f 2f8e 923f 0dc9 823f 2a97 703f
00000060: d668 7f3f 6067 753f 994f 7b3f 8439 5a3f
00000070: 6f01 863f 8698 6d3f 9a29 6d3f eefa 863f
00000080: 6893 733f 4152 7f3f e9ba 783f 1c00 753f
00000090: fa7a 823f 158d 6d3f 0751 803f 9460 6a3f
000000a0: 920b 7f3f cf5d 7e3f 3f93 773f 0e6f 823f
000000b0: 1023 853f deec 783f 1829 883f cc55 8f3f
000000c0: 6953 6b3f 5280 823f
1.0455239 1.0279053 1.1562103 0.99954015 0.97696996 0.9881249 0.96988434 0.97075915
1.0626748 0.9652582 0.9694536 0.94689304 0.90507376 1.08869 0.9308677 1.0426638
0.95635086 1.1073717 1.0920876 0.88456345 0.9553283 1.1449641 1.0217606 0.9398066
0.9976934 0.9586086 0.9816833 0.8524401 1.0469187 0.9281086 0.92641604 1.0545328
0.951468 0.99734885 0.971602 0.9570329 1.019378 0.927934 1.0024728 0.91553617
0.9962703 0.9936189 0.96709055 1.0190141 1.0401325 0.9723643 1.0637541 1.1198058
0.9192415 1.019541

predictor/bn6/avg_var f4 [50]
00000000: 44ea 4040 7bfb 8140 3064 2840 e532 6740
00000010: 8013 4840 d7bd 4840 aa6b 1b40 3d50 5c40
00000020: 4da5 0e40 ce6f 3d40 2c0c 1e40 505d 6c40
00000030: 3a08 3d40 c135 b140 42ec 4c40 51e1 5340
00000040: b036 3540 e662 2f40 f261 4640 2436 5040
00000050: 59e4 0b40 349f 4b40 eb22 1240 e6ee 2a40
00000060: 42f9 6940 6442 3640 c855 2a40 aa39 4140
00000070: e474 2240 46de 1040 ded3 4d40 bc23 3f40
00000080: 3b3a 3040 0dec 2740 cfba 8c40 c096 3c40
00000090: 6ab3 7c40 951e 5e40 c674 4740 8676 2a40
000000a0: 3fc3 3240 a4ec 3a40 10af 1d40 8246 2b40
000000b0: 484d 4540 557b 2e40 cc81 4b40 addb 3c40
000000c0: abc6 5940 61c5 5b40
3.0142984 4.0619483 2.631115 3.6124814 3.1261902 3.136587 2.4284463 3.4423974
2.2288392 2.959949 2.469493 3.6931953 2.953627 5.5378118 3.20192 3.3106272
2.8314629 2.7404113 3.099728 3.2533045 2.1858122 3.181592 2.2833812 2.6708312
3.6558385 2.8478022 2.6614857 3.0191445 2.5383844 2.2635665 3.2160563 2.986556
2.753554 2.6237824 4.397804 2.946701 3.9484506 3.4706166 3.1165023 2.663484
2.7931669 2.9206934 2.46381 2.6761785 3.0828419 2.7262776 3.1797972 2.950908
3.4027507 3.433922

predictor/bn6/avg_mean f4 [50]
00000000: 1c4b 60bf d698 48bd 0f8a 61bf b298 6abf
00000010: ef47 b73d f3e4 d1bf f1ec fe3d 54b0 013e
00000020: cd70 2dbf 400e 54bf 4e72 a7bf 2460 50bf
00000030: 45cb cabf 309e 503f c6d6 eebe f930 8a3f
00000040: 121f dd3d 5427 13c0 3561 b2bf 984d 25bf
00000050: 4e3b 89be bb29 2ebf 62ae 02bf da2e d4bd
00000060: 3cee 94be 5046 84bf c6c5 adbf 8aaf 0e40
00000070: 91df 7dbf b632 f4be bec7 8bbf 007c eebf
00000080: bca9 09bf 891c cf3e 88e3 a0bf eb5e afbf
00000090: ed9f 2f3f cc42 d0bf a214 99bf 9ac5 983e
000000a0: 76ed 1ac0 5441 c6bf 42e3 9dbd 7ace 34bf
000000b0: 3990 a7be 419a 2ac0 cd94 a4bf a1aa 32c0
000000c0: 8aca 2bbf c19f 353f
-0.8761461 -0.04897388 -0.88101286 -0.91639245 0.08949267 -1.6397995 0.12447537 0.1266492
-0.67750245 -0.82834244 -1.3081758 -0.813967 -1.5843283 0.81491375 -0.46648234 1.0796195
0.10796942 -2.2992754 -1.3935915 -0.64571524 -0.26803058 -0.68032426 -0.5104734 -0.10360499
-0.29088008 -1.0333958 -1.3575981 2.229464 -0.9916926 -0.4769494 -1.0920331 -1.8631592
-0.5377462 0.40451458 -1.2569437 -1.3700842 0.686034 -1.6270385 -1.1959422 0.29838258
-2.4207435 -1.5488687 -0.077093616 -0.7062756 -0.3272722 -2.665665 -1.285791 -2.7916644
-0.67105925 0.7094689

predictor/bn7/beta f4 [50]
00000000: 12d4 9ebd c5fb 7dbd bd1e 81be e28f 54be
00000010: f75b 64be 22fa 5cbe 4411 22be c798 85bd
00000020: da7a 06be dce9 51be 3539 7fbe 6359 5fbe
00000030: 3427 02be 21a1 43be 31bb 17be 2c4b 0fbe
00000040: bcb6 35be 8716 713d 2589 05be 8de9 89be
00000050: 8f03 15be c440 9d3d f8ef f3bd 1bd3 83be
00000060: 87df acbe e060 283b 85ca 37be a8bd b3bd
00000070: bcc6 adbd c974 47be 884d 96be 42da 52be
00000080: a34a 85be 2a7c 48be a9d7 49bd 1bfc c2bd
00000090: ebc6 87be d062 0ebe f34a c5bd 3803 24be
000000a0: 927c f7bd eb9f 04be e381 a7bd 8732 25bd
000000b0: 27fb 27be 3487 c53c 6d04 30be fd14 18be
000000c0: 56e2 36be 7634 b0bd
-0.07755293 -0.062007684 -0.25218764 -0.20758012 -0.22300707 -0.21579793 -0.15826899 -0.065232806
-0.13132802 -0.20499367 -0.24924167 -0.21811442 -0.12710267 -0.19104435 -0.14817502 -0.1399352
-0.17745489 0.058859374 -0.13040598 -0.26935998 -0.14552139 0.07678369 -0.11911005 -0.25746998
-0.33764288 0.0025692508 -0.17948349 -0.087764084 -0.08485171 -0.19478144 -0.29356027 -0.20591071
-0.26033506 -0.19578615 -0.049277935 -0.095207416 -0.2651895 -0.13904881 -0.09633436 -0.16016853
-0.12084307 -0.12951629 -0.08179071 -0.04033139 -0.16404401 0.024112321 -0.17189188 -0.14851756
-0.17859778 -0.08603756

predictor/bn7/gamma f4 [50]
00000000: d422 723f cf22 673f a33d 573f c044 693f
00000010: cc52 643f c329 7f3f b7bd 613f 8ce3 873f
00000020: 383a 893f c484 713f 5da3 6a3f dc51 753f
00000030: 514a 713f ffa7 863f 598a 5b3f f8c6 ae3f
00000040: 4b55 633f 2bd6 923f 573a 723f c68a 743f
00000050: 0033 6e3f 6e4e 883f 807c 723f ccce 823f
00000060: f7ed 8d3f ab4e 843f a09c 763f d6ce 9b3f
00000070: 157b 8d3f 2f94 683f 3d09 923f 3375 683f
00000080: 078c 783f 7aff 793f e90a 6e3f 8084 7d3f
00000090: 8c91 713f 41ba 6f3f d4a1 5f3f 1dcb 8b3f
000000a0: 5a66 723f c29c 743f f64d 5c3f ad4a 833f
000000b0: c7f7 773f 1348 7b3f d0f7 843f 5ee9 813f
000000c0: 7d5c 803f 2bde 763f
0.94584394 0.9028749 0.84078425 0.9112053 0.8918884 0.996731 0.88180107 1.0616317
1.0720892 0.9434321 0.9165552 0.9582803 0.9425402 1.0520018 0.85757977 1.365447
0.8880202 1.1471609 0.9462027 0.9552425 0.9304657 1.0648935 0.9472122 1.0219359
1.1088246 1.0336508 0.9633274 1.2172496 1.1053187 0.9085111 1.1409069 0.9080383
0.97088665 0.9765545 0.929854 0.99030304 0.9436271 0.93643576 0.87356305 1.092136
0.94687426 0.95551693 0.8605646 1.0257164 0.96862453 0.9815685 1.0388126 1.0149343
1.0028225 0.9643275

predictor/bn7/avg_var f4 [50]
00000000: 1bb1 2f40 07f2 7c40 27d1 5c40 7ac6 2e40
00000010: c00c 7540 c917 3540 f3b3 1e40 f93b 5340
00000020: 6b06 a440 05fe 6540 fddd 3440 807f 2c40
00000030: 6940 3d40 fa0f 4940 358b 5e40 9059 0f41
00000040: a37d 4240 10df 6a40 2547 2740 2bf8 2640
00000050: 382e 4940 7228 6740 0580 0f40 913e 7d40
00000060: f5f2 6640 4513 2240 a3ca 2640 12a9 4e40
00000070: 9e12 5040 72b7 1a40 f0ba 2340 4754 4840
00000080: ac47 5440 b8e2 4040 761e b740 d3cf 2e40
00000090: c956 2440 eaae 6f40 a41d 2e40 b51a 5340
000000a0: 1b62 3840 067a 1e40 e145 2340 5eb1 5340
000000b0: fcba 6540 1d5e 8c40 8ab3 5d40 f3c5 3440
000000c0: 2a7a 4c40 cc95 2640
2.7451847 3.9522722 3.4502656 2.730864 3.8289032 2.8295767 2.4797332 3.3005354
5.1257834 3.5936291 2.826049 2.695282 2.9570563 3.1416001 3.4772465 8.959366
3.0389183 3.6698647 2.6137173 2.608897 3.143446 3.6118436 2.2421887 3.9569438
3.608579 2.532426 2.606118 3.2290692 3.2511363 2.4174466 2.5582848 3.130144
3.3168745 3.0138378 5.7224684 2.7314346 2.567797 3.745051 2.7205591 3.298505
2.880988 2.4761977 2.55114 3.3077006 3.5895376 4.3864884 3.4640832 2.8245819
3.1949563 2.6028929

predictor/bn7/avg_mean f4 [50]
00000000: 4e6c 7ebf 8172 0ebf 74fa ddbe 784d 40bf
00000010: 41be a7bf 0cfd acbf 4286 87bf 3046 bfbf
00000020: 8f85 bb3f d3a1 8c3f 6aa5 6bbe fd89 a73e
00000030: 96eb 003d a72e 08c0 5876 a9bf 041f 18c0
00000040: 8e62 863c b06a 33c0 8003 80bf 4225 e23e
00000050: 3830 48bf 7109 bfbf 9184 65bf d75e b7bf
00000060: 4c04 30bf eb30 9ebf 6b9b f63e ebf5 aebf
00000070: a014 e2bf fcb6 81bd 7663 d03e 316c 7abf
00000080: 86ce b53e 1889 99bf f2c9 25c0 9cbd b4bf
00000090: f6f0 2dbf d26c 423e 07fa 7abf f35c 0bc0
000000a0: aa8d 7bbf c8b1 3abf 7e11 a3bf 0b65 08c0
000000b0: 3037 26bf 0b83 0ac0 b873 89bf 2d59 7fbf
000000c0: 377e dabe ebf2 80bf
-0.9938401 -0.5564347 -0.43355143 -0.7511821 -1.3104936 -1.3514724 -1.0587847 -1.4943295
1.4650134 1.0986885 -0.23012319 0.32722464 0.031474672 -2.1278474 -1.3239241 -2.376893
0.016404416 -2.8033867 -1.0001068 0.4416905 -0.78198576 -1.4924756 -0.89655405 -1.4325818
-0.68756557 -1.2358679 0.4816545 -1.3668798 -1.7662544 -0.063337296 0.40700883 -0.97821337
0.35509127 -1.1994963 -2.5904508 -1.4120364 -0.679458 0.18986824 -0.9803776 -2.1775482
-0.9826304 -0.7292752 -1.2739713 -2.1311672 -0.6492796 -2.1642482 -1.073844 -0.99745446
-0.4267442 -1.0074133

predictor/bn3/beta f4 [50]
00000000: 6af4 00be f984 5bbe 9036 e0bd 5c85 75be
00000010: b1e0 00be f1b2 51be 21b8 49bc 617f 29be
00000020: df86 22be 3ee3 bebd 9710 f2bd 2cb1 db3b
00000030: 9814 75be 8705 a4bd eeaa f5bc d236 14be
00000040: 83ee 1cbe 3b8c 39bd 25ae 54be 2b9d 16bd
00000050: 5cdd 2dbe 3d3e 42be 2deb 4fbd 19ee 87be
00000060: a407 a8be 8a31 c8bd 1f81 15be 5f36 90be
00000070: e1ec 9bbd 2bae edbc c7d1 34be ac0a 7dbc
00000080: 7177 14be 00dd 48be cba8 1cbe 33ea 50be
00000090: 9594 e3bd 89f4 54bd 11a5 50be 0da2 76be
000000a0: f8a4 a4bd f473 c9be 7b80 81bd 21d7 27be
000000b0: b2f8 79be 7587 c8bd 0d76 1ebe 4f13 3cbe
000000c0: 7537 81bd 1fd4 a7be
-0.12593237 -0.21437444 -0.10947907 -0.23976654 -0.12585713 -0.20478417 -0.012311966 -0.16552497
-0.15871762 -0.09320687 -0.118195705 0.00670447 -0.23933637 -0.08008867 -0.029988732 -0.14474037
-0.1532536 -0.04529975 -0.20769556 -0.03677098 -0.16978973 -0.18969055 -0.05076139 -0.26548842
-0.3281833 -0.09775074 -0.14600037 -0.28166482 -0.076135404 -0.029013714 -0.17658149 -0.015444439
-0.14498688 -0.19615555 -0.15298764 -0.2040184 -0.11112324 -0.05199102 -0.20375468 -0.24085255
-0.08039278 -0.39346278 -0.06323334 -0.16390659 -0.24411276 -0.097914614 -0.1547472 -0.1836674
-0.06309406 -0.32779023

predictor/bn3/gamma f4 [50]
00000000: 46b8 7e3f c2b0 733f 2604 703f 3366 463f
00000010: e1fd 5c3f f72c 8f3f 117c 7e3f edec 8a3f
00000020: dc9f 773f 1960 873f 6e2b 963f b2e9 793f
00000030: 23e8 833f 8e66 683f ec70 863f c33b 6b3f
00000040: 3b11 663f 73f2 803f f671 6a3f 0c94 7d3f
00000050: cd72 a13f 4337 7f3f 79ca 843f 5702 7c3f
00000060: e765 823f 314d 613f 4c59 6f3f 22e2 503f
00000070: a77c 7e3f 061f 9a3f 3f2f 5b3f 9b00 7e3f
00000080: 605c 573f 64c9 713f 6ac7 7c3f 24b7 613f
00000090: 0454 833f c0df 9d3f 4c9a 603f d9ea 673f
000000a0: 0515 653f 3b0c 903f b1fb 643f 1598 763f
000000b0: 73f4 663f 8521 873f 9f78 883f ca13 963f
000000c0: fb50 783f 1f5d 493f
0.9949993 0.95191586 0.9375633 0.77499694 0.8632489 1.1185597 0.9940806 1.0853554
0.967283 1.0576202 1.1732004 0.97622216 1.0305218 0.90781486 1.0503211 0.91888064
0.8987004 1.007399 0.9158014 0.99054027 1.261316 0.996937 1.037429 0.9844107
1.0187348 0.8800841 0.9349563 0.8159505 0.99408954 1.2040718 0.85618967 0.99219674
0.8412533 0.9444792 0.9874178 0.88170075 1.0260015 1.2333908 0.8773544 0.90592724
0.894852 1.1253732 0.8944655 0.9632581 0.9021675 1.0557104 1.0661811 1.1724789
0.96998566 0.78657717

predictor/bn3/avg_var f4 [50]
00000000: ee51 a040 7cdd 0a40 c68d 8a40 863e 3340
00000010: ac0f 4540 a84a 8140 a369 6640 dcec 3540
00000020: f199 8040 86b8 3240 daa9 7e40 7d2f 9740
00000030: f472 9b40 2403 3d40 938d 4440 afc7 ab40
00000040: e48b 2340 6bc4 0c40 9cc3 3b40 700a aa40
00000050: f87a 8f40 bed9 6140 a35f 5840 b5fd 3240
00000060: eca7 5640 baa7 5440 a311 a440 a889 3b40
00000070: 31a8 b940 ff08 a440 2a17 b740 377a 8940
00000080: 4fbd 4640 7420 4b40 2020 3d40 3c7f 5240
00000090: b7eb 5440 3344 a640 7b4d 3440 7efe 7240
000000a0: 7300 7040 1c12 9e40 aedc fc40 f9db 3340
000000b0: bbb4 5d40 edcf 4040 c14c d240 11ba dd3f
000000c0: 0415 6c40 da23 3340
5.010001 2.1697683 4.3298063 2.8006911 3.0790815 4.0403633 3.6001976 2.8425817
4.0187917 2.7925124 3.979117 4.724547 4.8577824 2.9533167 3.071141 5.3681254
2.5554132 2.1994884 2.933814 5.313774 4.483761 3.528915 3.3808372 2.796735
3.3539991 3.3227372 5.127153 2.9302769 5.801781 5.126098 5.7215776 4.296169
3.1053045 3.1738558 2.9550858 3.2890158 3.326887 5.195825 2.817229 3.796783
3.7500274 4.9397106 7.9019384 2.810301 3.464156 3.0126908 6.5718694 1.7322408
3.6887827 2.7990632

predictor/bn3/avg_mean f4 [50]
00000000: 8fca debf 1b31 46be 4081 79bf 6590 8dbe
00000010: b9c0 24bf 12db 5cc0 675b 09c0 8191 f0bf
00000020: 0963 6dbf 1b77 41bf 89fd 6ec0 7ffa 0cc0
00000030: 59a3 a63d 5572 9abf dea0 22c0 3162 6dbf
00000040: f387 04c0 1a08 e0bd 2672 853e 0e92 37c0
00000050: 0316 e7be 1112 4bc0 5789 1dbf 6ceb 81bf
00000060: 06a4 4bc0 f68e 0b3f e8ac 0cc0 0c3b 5bbf
00000070: cb50 c1bf 65a9 cfbf 29a8 a5bf fd43 d5bf
00000080: cb24 333f b7ce a7be b9db a0bf bc2d adbf
00000090: e5dc bbbe 043c 86c0 e44a 24be b237 393f
000000a0: e64c 23c0 f0b1 6b40 c86d 10bf e1f4 97bf
000000b0: 8eb9 2a3f ae9b 2cc0 96e8 a93d 6e72 20bf
000000c0: 1cbb dabe dfe4 a9be
-1.7405566 -0.1935467 -0.97462845 -0.27649227 -0.6435657 -3.450871 -2.1462038 -1.8794404
-0.9272924 -0.75572366 -3.7342246 -2.202789 0.08136625 -1.2066141 -2.5410686 -0.92727953
-2.0707977 -0.10939045 0.2606365 -2.8682895 -0.4513398 -3.1729777 -0.6153769 -1.014997
-3.1818862 0.54515016 -2.1980534 -0.85636973 -1.5102781 -1.622357 -1.2941943 -1.6661373
0.69978017 -0.32774898 -1.2567054 -1.3529582 -0.36691967 -4.194826 -0.16044194 0.7235061
-2.5515685 3.6827354 -0.5641751 -1.1871606 0.66689384 -2.697002 0.08296315 -0.62674606
-0.42720878 -0.33182427
