model_epo0009.npz (npz, 689452 bytes, 46 tensors)

predictor/conv7/W f4 [50, 50, 3, 3]
0	0x3e3083e1	0.17237808
1	0x3dc8f1c9	0.09811742
2	0x3d05d6bc	0.03267549
3	0x3e18b6a3	0.1491342
4	0xbdc18bb2	-0.09450473
5	0xbd668902	-0.056283005
6	0x3d862a71	0.06551064
7	0xbbffa283	-0.0078013553
8	0x3c4e53c1	0.012593211
9	0xbd77f2da	-0.060534336
10	0x3e4e0c66	0.20121917
11	0x3e27934b	0.16364782
12	0x3d72d0c0	0.05928111
13	0xbd6b9ac0	-0.057520628
14	0x3d729e73	0.05923314
15	0xbe1c7579	-0.15279187
16	0xbdebf7c2	-0.115218654
17	0xbddb6f62	-0.10714604
18	0x3d34a4ea	0.044102587
19	0x3def5df7	0.11687844
20	0x3e3dd0c7	0.18536673
21	0xbc22ff29	-0.00994853
22	0xbea287e3	-0.31744298
23	0x3e1c61dd	0.15271707
24	0xbcefe472	-0.029283736
25	0xbd6418d9	-0.05568776
26	0x3d297d2f	0.04137915
27	0x3df91053	0.12161317
28	0xbc6f7bf3	-0.014616954
29	0xbd82101f	-0.06350731
30	0x3d481a7a	0.048853375
31	0xbc4bebf3	-0.012446391
32	0xbe57c2de	-0.2107043
33	0xbdf32ee8	-0.11874181
34	0xbd57c36f	-0.052676614
35	0xbe2b85fe	-0.16750333
36	0x3cbf4fc7	0.02335347
37	0x3e088066	0.1333023
38	0xbda3647f	-0.079781525
39	0x3d57d90b	0.052697223
40	0xbde55ccd	-0.11199341
41	0xbdac53af	-0.08414399
42	0x3de891cd	0.11355934
43	0xbd05115b	-0.032487255
44	0xbd43ba4a	-0.04778508
45	0xbddf3c97	-0.109002285
46	0xbdc5ec5e	-0.09664224
47	0xbe707fa1	-0.23486187
48	0xbc55b43f	-0.013043462
49	0xbd611e91	-0.05496079
50	0x3dcb9773	0.09940996
51	0x3d69237c	0.056918606
52	0xba0325df	-0.00050028967
53	0x3d490d90	0.0490852
54	0x3d0a805f	0.03381383
55	0xbdf3046e	-0.11866079
56	0xbdb10758	-0.08643979
57	0x3dc5ec06	0.096641585
58	0xbd3616d8	-0.04445538
59	0xbc1bc611	-0.009507672
60	0xbcfd12f1	-0.030892821
61	0x3b83013e	0.003997951
62	0xbd3616af	-0.044455227
63	0x3ad84a7c	0.001650169
64	0xbc9357c7	-0.017986191
65	0x3cd11de6	0.025526952
66	0x3cb87d90	0.02252081
67	0xbd7f0fb7	-0.062270846
68	0x3dada082	0.0847788
69	0x3d5f54a1	0.054524068
70	0xbe09875d	-0.13430543
71	0x3dedb9dc	0.116077155
72	0x3de86154	0.11346689
73	0xbd38283c	-0.044960245
74	0xbc8e7987	-0.017391933
75	0xbd11b0c4	-0.035568967
76	0xbd986179	-0.074404664
77	0xbde8c95b	-0.113665305
78	0x3de51e29	0.11187393
79	0x3da52d55	0.08065287
80	0xbd92ce16	-0.07168214
81	0xbda2d4e4	-0.07950762
82	0x3cea3ed6	0.028594416
83	0x3d5c15b6	0.053731643
84	0xbd8cc61b	-0.06873723
85	0x3d3e7f0e	0.046507888
86	0x3c006770	0.007837161
87	0x3d1afa9f	0.037836667
88	0x3ddb4e46	0.10708289
89	0xbe4ff8f2	-0.20309809
90	0x3db026ce	0.086011514
91	0x3df8f363	0.12155797
92	0x3dfe2ca4	0.12410858
93	0xbe1996c2	-0.14998916
94	0xbc514d98	-0.012774847
95	0x3b502515	0.0031760384
96	0x3ce0009e	0.027344044
97	0x3d77e810	0.060524046
98	0x3d461c84	0.04836704
99	0xbc011aea	-0.007879952
100	0x3ce790c9	0.028267281
101	0xbdff7fb5	-0.1247553
102	0xbd195f5a	-0.03744445
103	0x3d0b0d5b	0.033948284
104	0xbe3eda85	-0.18638046
105	0x3c963a66	0.018338393
106	0xbb86b7e7	-0.0041112783
107	0xbce47f57	-0.027892752
108	0xbd2eb4f8	-0.042653054
109	0x3d71998c	0.058984324
110	0xbdbde251	-0.09271682
111	0x3d1101db	0.03540216
112	0xbd192217	-0.037386026
113	0xbdc71bdb	-0.0972211
114	0x3e7cd1a1	0.24689342
115	0xbd3747ba	-0.04474614
116	0x3d6d28a5	0.05790009
117	0x3caa5a8f	0.020795135
118	0x3d9f9cbc	0.077935666
119	0x3b65b346	0.0035049482
120	0xbc84c41a	-0.01620679
121	0xbd1951f5	-0.037431676
122	0x3d8186e7	0.06324559
123	0xbd959fba	-0.07305856
124	0x3da7cb14	0.08193031
125	0x3d6de093	0.0580755
126	0xbcf20835	-0.029544929
127	0xbdf8d62d	-0.12150226
128	0x3a69ff96	0.000892633
129	0x3e0768a8	0.13223517
130	0x3d35ee77	0.04441687
131	0xbbdcacdc	-0.0067344736
132	0x3de64215	0.11243073
133	0x3df30e1e	0.11867927
134	0xbc9b645f	-0.01896876
135	0xbe6db988	-0.23215306
136	0xbc5f7d1f	-0.013640671
137	0xbd3cc4e5	-0.04608621
138	0x3e45942d	0.19294806
139	0xbd7afb6e	-0.06127494
140	0xbcdfa6ab	-0.027301153
141	0x3e1e31b6	0.1544865
142	0xbcacfa41	-0.021115424
143	0x3ce2da81	0.027692081
144	0xbd22933a	-0.039691187
145	0x3c859d7b	0.016310444
146	0xbc420b41	-0.011843503
147	0x3d854e67	0.06509095
148	0xbde44a30	-0.11146963
149	0xbd6f793f	-0.05846524
150	0xbd9bb811	-0.07603467
151	0xbe713950	-0.23557019
152	0x3baff85f	0.0053701843
153	0xbd77ef53	-0.06053097
154	0x3c8e9563	0.017405218
155	0x3c4bb2f7	0.012432805
156	0xbe07acf8	-0.13249576
157	0xbd0907ab	-0.03345458
158	0x3dc07d48	0.093988955
159	0x3d5e211e	0.0542308
160	0x3d1d110a	0.038346328
161	0x3ba96b0c	0.0051702317
162	0x3e1f7039	0.15570153
163	0x3e529a5e	0.20566699
164	0x3d8684ec	0.065683216
165	0xbd3c581a	-0.045982458
166	0x3d6932aa	0.056933083
167	0x3dcb7480	0.0993433
168	0xbd2fcb79	-0.042918656
169	0xbd2c1801	-0.04201508
170	0x3e1d8262	0.15381768
171	0x3cf49844	0.029857762
172	0xbd71140d	-0.058857013
173	0xbdaa5d8c	-0.08318624
174	0x3d024d38	0.031811923
175	0x3d23c5fa	0.039983727
176	0xbd978961	-0.0739925
177	0xbd4f2280	-0.05057001
178	0x3dd70a8b	0.10500058
179	0xbd2b8e74	-0.0418839
180	0x3d4aedaf	0.04954308
181	0xbdec9a7a	-0.115529016
182	0xbe271dc8	-0.16319954
183	0x3d736eda	0.05943189
184	0xbd9360e6	-0.07196216
185	0xbe01050c	-0.12599581
186	0x3d5b0866	0.053474806
187	0xbd5b25af	-0.053502735
188	0xbd316ca1	-0.043316487
189	0xbce9fa21	-0.028561654
190	0x3dfd3974	0.12364474
191	0x3acfb418	0.0015846519
192	0xbcfdcd12	-0.030981574
193	0x3e7db917	0.24777637
194	0x3decbf8f	0.115599744
195	0x3e26dbd2	0.16294792
196	0x3d82c21f	0.06384682
197	0x3e040fd4	0.12896663
198	0x3d7b2cad	0.061321903
199	0xbe200914	-0.15628463
200	0xbb2544ce	-0.0025218013
201	0x3e04b188	0.12958348
202	0xbdad2043	-0.08453419
203	0xbdea8b97	-0.11452406
204	0xbc94d90e	-0.018169906
205	0x3dc7ea3c	0.097614735
206	0x3e5b0ce3	0.21391635
207	0xbe1346f0	-0.1438253
208	0xbc3d25fe	-0.011544703
209	0xbd41eca6	-0.047344826
210	0xbc724fbf	-0.014789521
211	0xbde5fac1	-0.11229468
212	0xbe09d803	-0.13461308
213	0xbd7cda1e	-0.06173145
214	0x3d60087a	0.054695584
215	0xbda1c2dc	-0.078984946
216	0xbdafb321	-0.08579088
217	0x3db3796a	0.08763392
218	0x3bbadd51	0.0057026525
219	0xbde2deed	-0.11077676
220	0xbd8ca341	-0.06867076
221	0xbdc8cf6c	-0.098051876
222	0xbc076e84	-0.008266095
223	0xbb973e5a	-0.004615587
224	0xbe809b71	-0.25118592
225	0xbe010dc9	-0.12602915
226	0x3e2511af	0.16120027
227	0xbe3b28dd	-0.18277307
228	0xbe24a4bb	-0.16078465
229	0x3d2dbd55	0.04241689
230	0xbd9b1599	-0.07572479
231	0x3ddec53c	0.10877463
232	0xbdc46e34	-0.09591332
233	0x3b08fc3e	0.0020902301
234	0x3dfab7cc	0.12242088
235	0xbd64a175	-0.05581804
236	0xbe85ab26	-0.26107138
237	0x3e51768a	0.20455375
238	0x3da360ea	0.07977469
239	0xbcfc31f0	-0.03078553
240	0xbd988eba	-0.07449098
241	0x3e478a02	0.1948624
242	0x3ceb7d50	0.028746277
243	0xbdd6b647	-0.104839854
244	0x3d9ba556	0.07599895
245	0xbe23e9af	-0.16007112
246	0xbd822c09	-0.06356055
247	0xbbbf6037	-0.005840327
248	0xbd3d68a9	-0.04624239
249	0x3d0328d8	0.032021374
250	0x3d1eece5	0.03880014
251	0xbd7b366b	-0.061331194
252	0x3e7c2376	0.24622902
253	0x3cbb8be5	0.022893855
254	0xbe09df61	-0.13464119
255	0xbd962bad	-0.07332549

predictor/bn4/beta f4 [50]
0	0x3cc8f647	0.024531497
1	0xbe5210cf	-0.20514224
2	0xbe7c70f1	-0.24652459
3	0xbdc0ac4c	-0.09407863
4	0xbe2cc2f4	-0.16871244
5	0xbe75ea23	-0.24015097
6	0xbe38351e	-0.17989013
7	0xbe548c48	-0.20756638
8	0xbe5b0e79	-0.2139224
9	0xbe5d5245	-0.21613415
10	0xbdd9444c	-0.1060873
11	0x3d65f04d	0.05613737
12	0xbe0e3566	-0.13887557
13	0xbe029593	-0.1275237
14	0x3c77ac9b	0.015116836
15	0xbda19cbe	-0.07891224
16	0xbe3f908c	-0.18707484
17	0xbd8de0a0	-0.069276094
18	0xbb0f02ec	-0.002182181
19	0xbd8530f1	-0.065034755
20	0xbe382d4a	-0.17986026
21	0xbe7c6d37	-0.24651037
22	0x3d7a54eb	0.06111614
23	0xbe486581	-0.1956997
24	0xbdcc62d1	-0.09979785
25	0xbe3b3067	-0.18280183
26	0xbe949483	-0.29019555
27	0xbe485f0e	-0.1956751
28	0xbcbee676	-0.023303252
29	0xbd925688	-0.07145411
30	0xbe21db8a	-0.15806404
31	0xbe0736ef	-0.13204549
32	0xbe3c4850	-0.1838696
33	0xbe28b243	-0.16474251
34	0xbe3e7ba1	-0.18601848
35	0xbd217b20	-0.03942406
36	0xbca41d45	-0.020033488
37	0xbde3487e	-0.11097811
38	0xbd50ea8f	-0.051004943
39	0xbe24b38d	-0.16084118
40	0xbc7aee51	-0.015315608
41	0xbeb15293	-0.34633312
42	0xbe1cc791	-0.15310504
43	0x3b776e78	0.0037755053
44	0xbe378b3b	-0.17924206
45	0xbe1bba83	-0.15207867
46	0xbe126679	-0.14296903
47	0xbe5af1b2	-0.21381262
48	0xbdfa00d5	-0.1220719
49	0xbe45266a	-0.19252935

predictor/bn4/gamma f4 [50]
0	0x3f77618b	0.96633214
1	0x3f65aade	0.8971385
2	0x3f6cc55b	0.9248864
3	0x3f721462	0.9456235
4	0x3f7f7167	0.99782413
5	0x3f759e2c	0.95944476
6	0x3f6ea9f5	0.93228084
7	0x3f77210d	0.96534806
8	0x3f8f6a07	1.1204232
9	0x3f7e8389	0.99419457
10	0x3f77e811	0.9683848
11	0x3f8a66d8	1.0812635
12	0x3f6a9196	0.91628397
13	0x3f7f6e39	0.9977756
14	0x3f815154	1.0102944
15	0x3f9750a5	1.1821486
16	0x3f77043b	0.9649083
17	0x3f7e3b84	0.99309564
18	0x3f7e0680	0.9922867
19	0x3f80207a	1.0009911
20	0x3f7b7d92	0.9823848
21	0x3f6f380f	0.93444914
22	0x3f95c25d	1.169994
23	0x3f6a5391	0.9153376
24	0x3f69d502	0.9134065
25	0x3f8bd499	1.0924255
26	0x3f812718	1.0090055
27	0x3f64492c	0.8917415
28	0x3f55d544	0.8352854
29	0x3f6effdb	0.93359154
30	0x3f8126b5	1.0089937
31	0x3f884fcb	1.0649351
32	0x3f6bd40f	0.9212045
33	0x3f88b413	1.0679954
34	0x3f83df23	1.0302471
35	0x3f71ab3a	0.94401896
36	0x3f8730fc	1.0561824
37	0x3f7a78d6	0.9784063
38	0x3f8369e4	1.026669
39	0x3f771013	0.965089
40	0x3f6ac02f	0.916995
41	0x3f96884f	1.1760348
42	0x3f6d19eb	0.9261767
43	0x3f888e1f	1.0668372
44	0x3f8007d3	1.0002388
45	0x3f85d9bd	1.0457073
46	0x3f887a09	1.0662242
47	0x3f733a91	0.9501124
48	0x3f7b06b6	0.98057115
49	0x3f7e8568	0.9942231

predictor/bn4/avg_var f4 [50]
0	0x4068a99f	3.6353528
1	0x40244201	2.5665286
2	0x4037a1fc	2.8692617
3	0x401e642a	2.4748635
4	0x4067f116	3.6240897
5	0x4055add2	3.3387341
6	0x409393ad	4.611777
7	0x4024a0ae	2.572307
8	0x40338a05	2.805299
9	0x40309da5	2.7596219
10	0x4036877b	2.852019
11	0x40408c10	3.0085487
12	0x403b3c86	2.925569
13	0x40656659	3.5843718
14	0x40604d29	3.5047095
15	0x408557ac	4.166952
16	0x4068d795	3.638158
17	0x4042b6f4	3.0424166
18	0x4038ad2f	2.8855703
19	0x4083d828	4.1201363
20	0x40955405	4.6665063
21	0x4024edb3	2.577008
22	0x4030b671	2.7611353
23	0x40595f7a	3.3964524
24	0x40496b86	3.1471877
25	0x40ab1a06	5.3469267
26	0x404d587b	3.2085254
27	0x4032cb04	2.793641
28	0x405d8513	3.4612472
29	0x402e2ed3	2.721608
30	0x403641ee	2.847774
31	0x406d7312	3.7101483
32	0x40959dea	4.6755266
33	0x404a9294	3.1651964
34	0x40de6640	6.9499817
35	0x4031b6c9	2.7767813
36	0x402a023b	2.6563861
37	0x40940d27	4.6266055
38	0x4090ef60	4.5292206
39	0x4033464f	2.8011663
40	0x40330d35	2.797681
41	0x40549d5b	3.3221042
42	0x403aa10b	2.9160793
43	0x405ec607	3.4808366
44	0x407597b0	3.8373833
45	0x402d5b0b	2.7086818
46	0x40921516	4.565074
47	0x4038a9ec	2.8853712
48	0x40592560	3.3929062
49	0x404d6163	3.209069

predictor/bn4/avg_mean f4 [50]
0	0xbbb97c20	-0.005660549
1	0xbee0b6f9	-0.43889597
2	0xbfb70457	-1.42982
3	0xbf8cfb67	-1.1014222
4	0xbf06b0ad	-0.52613336
5	0xbf376e1a	-0.71652377
6	0xc0088f35	-2.1337407
7	0xbdfdafff	-0.12387084
8	0xbf5757a5	-0.8411811
9	0x3eac80f1	0.33692124
10	0xbf847e37	-1.0351018
11	0xbfc56fd5	-1.5424753
12	0xc000d26c	-2.0128431
13	0xbf42bb43	-0.7606699
14	0x3eaf2b79	0.34212855
15	0xc00c8b9a	-2.1960206
16	0xbf4b7a5b	-0.79483575
17	0xbf4fc4b0	-0.81159496
18	0x3ed1f0e7	0.41004106
19	0xbfe8347f	-1.814102
20	0xc0320e8e	-2.7821383
21	0xbf121631	-0.5706511
22	0xbfd7f1a8	-1.6870623
23	0x3e0ccaf6	0.13749298
24	0xbfa15f6b	-1.2607244
25	0xbfb861ff	-1.4404906
26	0xbf3403b7	-0.7031817
27	0xbfb67252	-1.4253638
28	0x3ee6f0e8	0.45105672
29	0xc00935ff	-2.1439207
30	0xbfd4fa6f	-1.6638926
31	0xbe1cc149	-0.15308107
32	0xbe29fa74	-0.16599447
33	0xbfa0d103	-1.2563785
34	0xc006c656	-2.1058555
35	0xbe52bd64	-0.2058006
36	0xbfc1e135	-1.5146853
37	0xbfa8274d	-1.3136994
38	0xbf12d6b9	-0.5735889
39	0xbfeafc21	-1.8358194
40	0xbf4a300a	-0.7897955
41	0xbfe776cc	-1.8083129
42	0xbf1de47b	-0.6167676
43	0xbf28455f	-0.6573085
44	0x3fb1c042	1.3886797
45	0xbfb7d4d4	-1.4361825
46	0xbfeb5265	-1.838452
47	0xbf179234	-0.59207463
48	0xbef93a58	-0.48677325
49	0xbdd0e000	-0.101989746

predictor/bn9/beta f4 [50]
0	0x3e70d485	0.2351857
1	0x3f459a6b	0.7718875
2	0x3e9b1e39	0.30296496
3	0x3eb6ad76	0.35679215
4	0xbe2bd310	-0.16779733
5	0x3e9e0ae8	0.30867696
6	0x3f7c4d25	0.98555213
7	0xbe9e7236	-0.3094651
8	0x3e69eb71	0.2284372
9	0x3e15ed6a	0.14641348
10	0x3eae0792	0.3399015
11	0x3e55a958	0.20865381
12	0x3ebef6fb	0.37297806
13	0x3e5e71c5	0.21723087
14	0xbe2c66ac	-0.16836041
15	0x3f25b8e7	0.64735264
16	0x3b8b05fa	0.004242656
17	0xbe37cdc3	-0.17949586
18	0x3eb104f3	0.34574088
19	0xbe8cca5c	-0.27498138
20	0xbbbee8e1	-0.005826101
21	0xbe418048	-0.18896592
22	0x3e84fc1a	0.25973588
23	0xbe0054bd	-0.12532325
24	0x3d92fbcc	0.07176933
25	0xbdb9e047	-0.09075981
26	0x3f15c2f1	0.5850058
27	0x3ea60a3e	0.3242969
28	0x3ddd38a5	0.1080182
29	0x3f5475a0	0.8299198
30	0x3ee4cf8c	0.44689596
31	0x3e9d8c83	0.30771264
32	0x3ed1c1c5	0.40968147
33	0x3eb29746	0.34881037
34	0xbe6f7af4	-0.23386747
35	0x3e562cdc	0.2091555
36	0x3e99558b	0.29948077
37	0x3ed5cfb6	0.41760033
38	0x3ec305b3	0.38090286
39	0xbdd23599	-0.10264129
40	0x3ed31572	0.412273
41	0x3ed237d1	0.4105821
42	0x3e97f0b4	0.2967583
43	0x3e6723e4	0.22572285
44	0x3e89fcea	0.2695077
45	0x3e2d7256	0.16938147
46	0x3e76932e	0.24079582
47	0xbc607870	-0.01370059
48	0xbdede8d3	-0.11616673
49	0x3e94bcea	0.2905038

predictor/bn9/gamma f4 [50]
0	0x3fa01d94	1.2509027
1	0x3f6b6637	0.9195284
2	0x3fb33c46	1.4002769
3	0x3fabb2ff	1.3414
4	0x3f7fdca1	0.9994603
5	0x3fa21f70	1.2665844
6	0x3f83c9e2	1.0295985
7	0x3f14b423	0.58087367
8	0x3f8a0625	1.0783125
9	0x3f9835dd	1.1891438
10	0x3e7761f0	0.24158454
11	0x3fac4dfa	1.3461297
12	0x3fb7f166	1.4370544
13	0x3fa19ac2	1.2625353
14	0x3f6d2655	0.92636615
15	0x3f71c91d	0.944475
16	0x3f620e19	0.8830276
17	0x3f889643	1.0670856
18	0x3fa7aa3e	1.3098829
19	0x3f80abe2	1.0052454
20	0x3f799496	0.9749235
21	0x3f6f55e9	0.93490463
22	0x3f908864	1.1291623
23	0x3f87f7ce	1.0622499
24	0x3fa175e9	1.2614108
25	0x3f691877	0.91052955
26	0x3f7456c1	0.95444876
27	0x3fa69139	1.3013068
28	0x3f8d86eb	1.1056799
29	0x3f78d5c9	0.9720121
30	0x4005aefc	2.0888052
31	0x3fa05ed3	1.2528938
32	0x3fb61254	1.4224343
33	0x3fabc4e6	1.3419464
34	0x3f6b4ed5	0.91917163
35	0x3fabdb58	1.3426313
36	0x3f930eb1	1.1488858
37	0x3fc77439	1.5582343
38	0x3fba5013	1.4555687
39	0x3f6ec106	0.9326328
40	0x3fcbdca5	1.592671
41	0x3fac61bb	1.3467325
42	0x3fbaa41a	1.458133
43	0x3f9ddddc	1.2333331
44	0x3fc52b22	1.5403788
45	0x3f8dbba1	1.1072885
46	0x3f894834	1.072516
47	0x3f921ebe	1.1415632
48	0x3f827f74	1.0195146
49	0x3faa6bc5	1.3314139

predictor/bn9/avg_var f4 [50]
0	0x40af2431	5.473168
1	0x41152f48	9.324043
2	0x4071ad98	3.7762203
3	0x40924d84	4.5719624
4	0x40b690c5	5.705172
5	0x40d3d737	6.6200213
6	0x40dfa458	6.9888115
7	0x416fd78d	14.990125
8	0x4088242d	4.254416
9	0x408f79c0	4.483612
10	0x4187f25f	16.993345
11	0x40783db0	3.878765
12	0x4083d348	4.119541
13	0x4079131a	3.8917909
14	0x40a4f33a	5.1546907
15	0x40f0e124	7.527483
16	0x4110b248	9.043526
17	0x4046c6d4	3.1058855
18	0x40aefbf8	5.468258
19	0x40b4e3ea	5.6528215
20	0x40908224	4.5158863
21	0x4060ba9b	3.5113895
22	0x409bf9ac	4.8742275
23	0x40141e5b	2.3143528
24	0x40113f03	2.269471
25	0x40e9c9ba	7.305875
26	0x41031d37	8.194633
27	0x40b978bb	5.7959876
28	0x404c1f70	3.1894188
29	0x40eb0026	7.343768
30	0x40c30bed	6.095206
31	0x4086b5c0	4.2096863
32	0x40cbe16f	6.3712687
33	0x40d233f0	6.56884
34	0x40945565	4.635424
35	0x40278faa	2.6181436
36	0x405ee9bd	3.4830163
37	0x406e7646	3.7259688
38	0x40ad1541	5.4088445
39	0x404cbd90	3.19907
40	0x409a377c	4.819273
41	0x40a57c1f	5.1714015
42	0x4055b682	3.3392644
43	0x40997a91	4.7962117
44	0x410fcfa9	8.988198
45	0x40435d44	3.0525675
46	0x404af7a5	3.171365
47	0x3fe0ae31	1.7553159
48	0x40773362	3.8625112
49	0x408b9e02	4.363038

predictor/bn9/avg_mean f4 [50]
0	0x40689b92	3.6344953
1	0xc0bd4c6f	-5.9155803
2	0x3e0ff211	0.14057185
3	0xbf86c06b	-1.0527471
4	0xc081c473	-4.0552306
5	0x4036e6c6	2.8578353
6	0xc0a24ea4	-5.0720997
7	0xc0e0d939	-7.0265164
8	0xbeb43381	-0.35195544
9	0x3efd24ea	0.49442226
10	0xc0dea574	-6.957697
11	0x3faed908	1.3659983
12	0x3fc4efd3	1.5385689
13	0xbf0ba980	-0.5455551
14	0xc0991031	-4.7832265
15	0xc0ab1cc8	-5.3472633
16	0xc0a61989	-5.190617
17	0x3f82ce0b	1.0219129
18	0xbf008878	-0.50208235
19	0xc04930a8	-3.1435947
20	0xc0a8783b	-5.2646766
21	0xc0821174	-4.0646305
22	0x3ff60685	1.922074
23	0xc0240a72	-2.5631375
24	0x3fac9039	1.3481513
25	0xc09467cb	-4.63767
26	0xc0c3c738	-6.1180687
27	0xbf5f0530	-0.8711729
28	0xbe59cc4b	-0.21269338
29	0xc0ace80c	-5.403326
30	0x3f6a1fc6	0.9145473
31	0xbf8a18c2	-1.0788805
32	0xbf633907	-0.8875889
33	0x3ef971b1	0.48719552
34	0xc083ee6e	-4.122855
35	0x3f759b27	0.9593987
36	0xbf4a5d2a	-0.7904841
37	0xbf3a825c	-0.7285516
38	0x3eeaded7	0.45873138
39	0xc06432c0	-3.5655975
40	0xbf3b60b1	-0.73194414
41	0x3f52752f	0.8221006
42	0xbd984660	-0.07435298
43	0x3fb3e674	1.4054704
44	0x3fd318a3	1.6491894
45	0x3f24c6e7	0.64366
46	0x3e968076	0.29394883
47	0x3fe6c056	1.8027446
48	0xbf9feaa5	-1.2493483
49	0xbe8f5618	-0.27995372

predictor/conv9/W f4 [50, 50, 3, 3]
0	0xbc9cf174	-0.019158103
1	0x3d964d9b	0.07339021
2	0x3e164135	0.14673312
3	0xbe327f89	-0.17431463
4	0xbda662e9	-0.08124334
5	0xbd248e7f	-0.040174957
6	0x3d664a68	0.056223303
7	0xbd256b77	-0.04038569
8	0x3e291e05	0.16515358
9	0x3d9661a6	0.07342844
10	0xbd99e339	-0.075140424
11	0x3b940a46	0.0045178263
12	0xbcd54b0f	-0.026036767
13	0x3dc572d7	0.096410446
14	0xbc95b520	-0.018274844
15	0xbc3a5c95	-0.011374612
16	0xbd9017b5	-0.07035772
17	0x3d5e7679	0.054312203
18	0x3d0e0dde	0.034681194
19	0xbcb7d068	-0.022438243
20	0x3dd9180b	0.10600289
21	0x3bc7fb96	0.0061029894
22	0x3e0934e5	0.13399084
23	0xbc20419b	-0.009781267
24	0xbd751974	-0.059838727
25	0xbda06982	-0.07832624
26	0x3e35b90b	0.1774637
27	0xbd78fb12	-0.060786314
28	0x3d28fa33	0.041254234
29	0x3d7d5a1e	0.06185352
30	0x3c81fdf0	0.015868157
31	0x3e08bfb4	0.13354379
32	0x3cb960dd	0.022629196
33	0x3c9c4be9	0.019079166
34	0x3c09a70d	0.008401644
35	0xbda4c204	-0.08044818
36	0xbbc24575	-0.00592869
37	0xba35997e	-0.0006927474
38	0xbcc55344	-0.024087556
39	0x3e3f4ac3	0.18680863
40	0x3d323482	0.043507107
41	0xbe17e7d1	-0.14834525
42	0xbd9f13d0	-0.07767451
43	0x3e04bc16	0.12962374
44	0x3dcdaf95	0.10043255
45	0x3d771e0c	0.06033139
46	0x3de75fe1	0.11297584
47	0x3d0b661e	0.034032933
48	0x3c860927	0.016361786
49	0xbd0aedf4	-0.033918336
50	0xbd7cbc93	-0.061703276
51	0xbddb021a	-0.1069376
52	0xbc19d020	-0.009388
53	0xbda22387	-0.079169326
54	0x3e4b39d3	0.19846277
55	0x3d8a5306	0.06754117
56	0x3e26b3f3	0.16279583
57	0x3c9d39b7	0.01919256
58	0x3d7c41c4	0.061586156
59	0x3d276f8c	0.040877864
60	0xbd534395	-0.051578123
61	0x3b56eb8c	0.0032794205
62	0xbd9cb22f	-0.07651173
63	0x3e0e753d	0.1391191
64	0x3c1dc8e3	0.009630415
65	0xbd5042da	-0.050845005
66	0x3ded523c	0.115879506
67	0x3e4489c8	0.19193184
68	0x3de19df5	0.11016456
69	0xbd944104	-0.07238963
70	0x3ca94101	0.02066088
71	0x3e03366f	0.12813734
72	0xbbf338d0	-0.007422544
73	0x3db6dd58	0.08928937
74	0x3dfff03d	0.12496994
75	0x3dfbc841	0.12294055
76	0x3e6267c1	0.22109891
77	0x3e264def	0.16240667
78	0xbccac86d	-0.024753774
79	0xbb0eca24	-0.0021787966
80	0x3e266ce2	0.16252473
81	0xbd8d600c	-0.06903085
82	0xbd4e9e72	-0.050444074
83	0xbc342e9e	-0.0109974425
84	0x3de6a13f	0.11261224
85	0xbdf661bc	-0.1203036
86	0x3c260eaa	0.010135332
87	0xbd968ec7	-0.07351451
88	0x3e25b443	0.16182046
89	0xbd203505	-0.039113063
90	0xbdeb67ee	-0.114944324
91	0x3d7fe22f	0.062471565
92	0xbd09b23d	-0.033617247
93	0xbe3712f4	-0.17878324
94	0x3c5ff1d7	0.013668499
95	0x3da60764	0.081068784
96	0xbdc8f472	-0.09812249
97	0xbbcf10ad	-0.0063191266
98	0x3cb1edbd	0.021719808
99	0x3dc3856e	0.09546934
100	0x3b69ecc3	0.00356941
101	0x3da41a87	0.08012872
102	0x3e5add9d	0.21373601
103	0x3cff832c	0.031190477
104	0x3d292970	0.041299284
105	0x3abaa81d	0.0014240775
106	0xbbb8181e	-0.0056181094
107	0xbd1176c4	-0.035513654
108	0x3e3743a9	0.17896904
109	0x3d9ae643	0.0756345
110	0x3e27e966	0.16397628
111	0x3d51df84	0.05123855
112	0x3e27daac	0.1639201
113	0xbd45e745	-0.04831626
114	0xbd1fd3c4	-0.039020315
115	0xbd86158f	-0.06547081
116	0x3db7fc22	0.089836374
117	0x3e42d7ea	0.19027677
118	0xbd9d0734	-0.076673895
119	0x3d298f57	0.041396465
120	0x3dc8c3b0	0.098029494
121	0x3c1c5ee8	0.009544112
122	0x3ddc6737	0.10761874
123	0x3ca94e7e	0.02066731
124	0x3cd32fb7	0.025779588
125	0xbddc5475	-0.107582964
126	0x3d3e7bee	0.046504907
127	0xbca5ae38	-0.020224676
128	0x3db6e23f	0.08929872
129	0x3da884a9	0.08228428
130	0xbc2a19ac	-0.010382097
131	0x3d71bfdc	0.059020862
132	0x3db70d0d	0.08938036
133	0xbdb74e2d	-0.08950458
134	0x3d07a779	0.0331187
135	0xbdebfca0	-0.11522794
136	0xbd408ae6	-0.047007464
137	0x3e0da11f	0.13830994
138	0x3d4243b3	0.047427844
139	0x3a968cb7	0.0011486028
140	0x3e5b070a	0.21389404
141	0xbe56df26	-0.20983562
142	0xbd067638	-0.032827586
143	0x3e0efa2b	0.13962619
144	0xbd5904f4	-0.05298324
145	0x3d4a6d1c	0.04942046
146	0x3dce4376	0.10071461
147	0x3de11b25	0.109915055
148	0xbe285681	-0.16439249
149	0xbd913b3d	-0.07091377
150	0x3cff700d	0.03118136
151	0xbda76ed3	-0.08175435
152	0x3dbdbf05	0.0926495
153	0x3dffde12	0.124935284
154	0xbdb6e32b	-0.089300476
155	0x3daf3ea7	0.08556872
156	0x3df374f8	0.118875444
157	0x3d980188	0.07422167
158	0xbcf83766	-0.030299854
159	0xbdf81229	-0.12112839
160	0x3dadf7fb	0.08494564
161	0x3d9d6c51	0.07686675
162	0xbdabd0df	-0.083894484
163	0x3ca40731	0.02002296
164	0xbd929d82	-0.071589485
165	0x3cf34d5c	0.029699974
166	0x3d66d8b1	0.056358997
167	0x3bc4e1a0	0.006008342
168	0x3dc463f5	0.09589378
169	0xbdbab2e4	-0.09116152
170	0xbd81a003	-0.06329348
171	0x3ddc287b	0.107499085
172	0xbb191730	-0.0023359768
173	0x3d9fec5d	0.078087546
174	0x3e27ef4a	0.16399875
175	0x3e17c1d0	0.14820027
176	0xbcf6daa3	-0.030133551
177	0x3d2f187b	0.042747956
178	0xbde63aec	-0.11241707
179	0x3e2b0826	0.16702327
180	0x3b91114f	0.004427112
181	0x3e24fe04	0.16112524
182	0x3e7ffb92	0.2499831
183	0xbde10056	-0.10986392
184	0x3ca18ef1	0.01972148
185	0x3c824e1e	0.01590639
186	0xbe001d2f	-0.12511133
187	0xbdb04b7d	-0.08608148
188	0xbbc16033	-0.0059013604
189	0x3d49afe3	0.049240004
190	0x3e086bed	0.1332242
191	0x3d76681d	0.060157884
192	0x3dde474e	0.10853444
193	0xba0bb866	-0.00053299067
194	0x3e05d9ce	0.13071367
195	0x3e05fb0f	0.13084053
196	0x3d8f428e	0.06995116
197	0xbae0fad2	-0.0017164594
198	0x3bd6bf25	0.006553548
199	0xbbb0cbae	-0.0053953743
200	0x3d8a1a1e	0.06743263
201	0x3d571f99	0.05252037
202	0x3d1ae1ef	0.037813123
203	0x3cbadbfd	0.022809977
204	0x3d7c3ab5	0.061579425
205	0x3cc77ee7	0.024352504
206	0x3e4b878f	0.1987593
207	0x3e475472	0.19465807
208	0x3adfa7ac	0.001706352
209	0xbe5793e2	-0.21052507
210	0x3df684ac	0.12037024
211	0x3cd8ef63	0.026481336
212	0xbdde74cd	-0.10862122
213	0xbd5d84db	-0.05408178
214	0xbc9157a9	-0.017741995
215	0x3e5d4571	0.21608521
216	0x3e759b2c	0.23984975
217	0x3e27e9b0	0.16397738
218	0x3ddc81cf	0.107669465
219	0xbd60216f	-0.054719385
220	0xbc2d42eb	-0.0105750365
221	0x3e06285b	0.13101332
222	0x3dec9888	0.115525305
223	0x3df119ec	0.11772522
224	0x3d295212	0.041338034
225	0x3e32c4da	0.17457905
226	0x3dec348a	0.115334585
227	0x3daf9390	0.08573067
228	0xbde03d0f	-0.10949146
229	0x3d050a0d	0.03248029
230	0xbdd9542c	-0.10611758
231	0xbdd9e22b	-0.10638841
232	0xbcac48d8	-0.021030828
233	0x3e28967b	0.16463654
234	0x3e3cb261	0.18427421
235	0x3dd4439d	0.10364459
236	0x3ab58bd0	0.0013850871
237	0xbc2213f0	-0.009892449
238	0xbe077d27	-0.13231336
239	0x3cf662ce	0.03007641
240	0x3d3ee12f	0.04660147
241	0xbda119e3	-0.078662656
242	0xbc93a04f	-0.018020777
243	0x3e1ae767	0.15127335
244	0xbbda429c	-0.0066607725
245	0xbcae6fd7	-0.021293564
246	0xbd2ccc01	-0.04218674
247	0x3d9a47c6	0.07533221
248	0x3d669212	0.056291647
249	0x3d8301a1	0.06396795
250	0x3dd7e6a2	0.105420366
251	0x3c88e8ac	0.01671251
252	0x3cdcfe0a	0.026976604
253	0xbe1e4d7b	-0.15459244
254	0xbd64b381	-0.05583525
255	0x3d7e042a	0.06201569

predictor/conv4/W f4 [50, 50, 3, 3]
0	0x3d1fbe69	0.03899995
1	0x3c84df39	0.016219722
2	0x3dd4d62c	0.103924125
3	0x3dcfd44b	0.101479135
4	0xbcf02fa5	-0.029319594
5	0x3e1f0c7c	0.15532106
6	0xbd0da405	-0.03458025
7	0xbcd33fa5	-0.025787184
8	0xbdf15c87	-0.11785226
9	0x3de1dfd2	0.110290185
10	0x3c949435	0.018137077
11	0x3d53fa82	0.051752575
12	0xbddc2226	-0.10748701
13	0xbdad8778	-0.08473104
14	0xbdb1a741	-0.08674479
15	0xbc54e97b	-0.012995119
16	0x3d07dc80	0.03316927
17	0x3d2caf70	0.042159498
18	0x3d20b640	0.039236307
19	0x3d4c89a1	0.04993594
20	0xbc977c5c	-0.018491916
21	0x3e123431	0.14277722
22	0xbe5891f2	-0.21149424
23	0x3e0e1352	0.13874558
24	0xbc28b165	-0.0102962
25	0xbd698b25	-0.057017464
26	0xbc2d3868	-0.01057253
27	0xbd81ef8c	-0.06344518
28	0xbdb4a4d6	-0.088205025
29	0x3e058bc5	0.13041599
30	0x3d88eea0	0.06686139
31	0x3dd85731	0.105635054
32	0xbdac5ca7	-0.084161095
33	0xbd25ce32	-0.040479846
34	0xbdd375dc	-0.10325214
35	0x3d0c59db	0.03426538
36	0xbd78c31a	-0.06073294
37	0x3b9941eb	0.0046770475
38	0xbd5ac7bc	-0.053413138
39	0xbd729ac4	-0.059229627
40	0xbd0f7dc6	-0.035032056
41	0xbdb56786	-0.08857636
42	0xbc9265af	-0.017870752
43	0xbc8fa1d6	-0.017533224
44	0xbb7f204d	-0.0038929165
45	0x3d0fd53d	0.03511547
46	0xbe1ec0a5	-0.15503176
47	0x3dff3c65	0.12462691
48	0x3e97d5a5	0.29655185
49	0x3d17a6e7	0.037024405
50	0x3da02de3	0.07821252
51	0xbe00b938	-0.12570655
52	0x3d8b2c85	0.06795601
53	0xbcbce19e	-0.023056801
54	0xbdba3e65	-0.09093932
55	0xbddc8aa6	-0.107686326
56	0xbc97937b	-0.018502941
57	0xbd196ca8	-0.03745714
58	0xbd92acb3	-0.07161846
59	0x3d8c1d46	0.06841521
60	0x3cdae3a1	0.02671987
61	0xbe785cd7	-0.24254166
62	0x3cb8e646	0.02257074
63	0x3e0933ea	0.1339871
64	0x3d6047c5	0.054755945
65	0x3e008190	0.12549424
66	0x3d340f79	0.04396007
67	0xbb4977c1	-0.0030741545
68	0xbd75ae52	-0.059980698
69	0x3ded2cfb	0.11580845
70	0xbbc124ac	-0.005894264
71	0xbd6b3ae6	-0.057429217
72	0x3dd7ddcb	0.105403505
73	0x3d7d0773	0.061774682
74	0xbd8d2a7c	-0.06892869
75	0x3c7f69e4	0.015589211
76	0xbc22d13e	-0.009937583
77	0xbba5c469	-0.0050588143
78	0xbe6ccf6a	-0.23125997
79	0xbd4edb6e	-0.050502233
80	0xbe4311c7	-0.1904975
81	0x3dd7409d	0.10510371
82	0xbdd8d9dc	-0.105884284
83	0x3d089cd3	0.033352684
84	0x3dcb8799	0.099379726
85	0x3d3113bf	0.043231722
86	0x3dbae7d5	0.0912625
87	0xbddd365a	-0.10801382
88	0x3daafd60	0.08349109
89	0x3c92c8ed	0.017918075
90	0x3d448654	0.047979668
91	0xbdb8f0fd	-0.0903034
92	0xbd890939	-0.06691212
93	0x3e0e2be4	0.1388393
94	0x3e17e326	0.14832744
95	0x3e1a86af	0.1509044
96	0xbdbb68e0	-0.09150863
97	0xbd22fdbc	-0.03979276
98	0x3e92f734	0.28704226
99	0x3e08655c	0.13319916
100	0x3e1121e0	0.14173079
101	0x3d9ffebc	0.078122586
102	0x3d0d0fd0	0.034438908
103	0x3cb066be	0.021533366
104	0x3dcc1012	0.09964003
105	0xbdec9461	-0.115517385
106	0x3da4d844	0.08049062
107	0x3e052464	0.13002163
108	0x3d94370c	0.07237062
109	0xbe525c77	-0.20543085
110	0xbdcbe115	-0.0995504
111	0xbe3426b6	-0.17592892
112	0x3d59c8e9	0.05317012
113	0x3e257ceb	0.16160934
114	0x3cbf0801	0.023319246
115	0xbe28b9f0	-0.1647718
116	0xbdd68906	-0.10475354
117	0x3d2ea583	0.042638313
118	0xbd9b68b0	-0.07588327
119	0xbc6b641a	-0.014367128
120	0x3c6fdbb9	0.014639788
121	0xbcee4100	-0.029083729
122	0x3cf36e72	0.02971575
123	0xbda0099f	-0.07814335
124	0xbd6b5803	-0.05745698
125	0xbd765f2d	-0.06014936
126	0xbdd290c8	-0.10281521
127	0x3d659aba	0.056055762
128	0x3e01ce7a	0.12676421
129	0xbbe8ecdf	-0.0071083154
130	0x3e030717	0.12795673
131	0xbe513f05	-0.20434196
132	0xbd83d150	-0.064364076
133	0xbe00e9aa	-0.12589136
134	0x3cdd5e27	0.027022434
135	0xbca891ae	-0.020577278
136	0x3b0e67a6	0.002172926
137	0x3d069f7c	0.03286694
138	0xbe3bc04d	-0.18335076
139	0xbe1b2901	-0.1515236
140	0xbd507d54	-0.050900772
141	0xbd450839	-0.048103545
142	0xbd8dab7c	-0.06917474
143	0xbe53ecb9	-0.20695771
144	0x3d549075	0.051895577
145	0x3e2310e2	0.15924409
146	0xbda9763d	-0.08274505
147	0x3e076d17	0.13225208
148	0xbcd681b2	-0.02618489
149	0x3d4ab2c6	0.049486898
150	0x3bf8cb3f	0.007592588
151	0xbd059077	-0.032608476
152	0xbde8f3dd	-0.11374638
153	0x3e1e3138	0.15448463
154	0xbdd129ac	-0.102130264
155	0x3d03cef7	0.0321798
156	0xbd68474d	-0.056708623
157	0xbb1a33b3	-0.002352935
158	0xbe1de506	-0.15419397
159	0xbdaed82d	-0.08537326
160	0xbe51e687	-0.20498095
161	0xbe36d7a7	-0.17855702
162	0x3de31fc2	0.11090042
163	0xbd5183b1	-0.05115098
164	0xbd592917	-0.053017702
165	0xbde2f3d0	-0.1108166
166	0x3db9c8d6	0.090715095
167	0x3d14f2f6	0.036364518
168	0x3e405dfc	0.18785852
169	0xbe1e07a7	-0.15432607
170	0xbd5d5d3c	-0.054043993
171	0x3d78744c	0.060657784
172	0x3cef44eb	0.029207667
173	0x3d815a2c	0.06316027
174	0x3d9c3de9	0.07628996
175	0x3d1ea300	0.038729668
176	0x3dc07b19	0.09398479
177	0xbe031e83	-0.12804608
178	0xbe3db93d	-0.18527694
179	0x3c6c53d2	0.014424281
180	0xbe2ce0ad	-0.16882582
181	0xbe8e0df6	-0.27745026
182	0x3d91ce2c	0.07119402
183	0xbe57884d	-0.21048088
184	0xbcfea313	-0.03108362
185	0x3d6d1c61	0.057888392
186	0xb9915703	-0.00027721384
187	0xbce7df56	-0.028304737
188	0x3d278b69	0.040904436
189	0x3e05aa7b	0.13053314
190	0xbd94e2d6	-0.07269828
191	0xbcc1578c	-0.023601316
192	0xbe18acb1	-0.14909627
193	0xbd451598	-0.048116297
194	0x3db73455	0.089455284
195	0xbcc74653	-0.024325525
196	0xbd07c75f	-0.03314912
197	0x3c4485fa	0.011994833
198	0x3de5e632	0.11225547
199	0x3b968203	0.0045931353
200	0x3d1dfbe7	0.03857031
201	0x3e3329f9	0.1749648
202	0x3d1c17a8	0.038108498
203	0xbd74486a	-0.059639372
204	0x3b648f93	0.0034875616
205	0x3d8c179e	0.06840442
206	0x3e576eeb	0.21038406
207	0x3ba06a1a	0.004895461
208	0x3da3cf4c	0.07998523
209	0x3d7d7f9a	0.06188927
210	0xbd2d542d	-0.042316604
211	0x3bb9cf42	0.005670459
212	0x3ddb8953	0.10719552
213	0xbd708218	-0.058717817
214	0x3d893db8	0.06701225
215	0x3cf5a157	0.02998416
216	0x3be79131	0.0070668687
217	0xbdda2f95	-0.10653607
218	0x3d2e8039	0.04260275
219	0xbdededca	-0.1161762
220	0x3d091f1e	0.03347694
221	0x3c6d4082	0.014480712
222	0x3c809ebc	0.01570069
223	0xbe22d64b	-0.15902059
224	0xbde33551	-0.11094154
225	0x3d98ecea	0.07467063
226	0xbb4e7508	-0.0031502862
227	0xbd3f4a5d	-0.046701778
228	0x3d99f8d8	0.07518166
229	0xbda517cb	-0.08061179
230	0x3db9a33a	0.09064336
231	0xbdf67775	-0.12034503
232	0x3e310864	0.17288357
233	0x3d11ffb2	0.03564424
234	0xbd4a21d9	-0.049348686
235	0xbb806917	-0.0039187777
236	0x3c842258	0.016129658
237	0x3cc7cfdd	0.02439111
238	0x3d891cad	0.066949226
239	0x3e0b7802	0.13619998
240	0xbdc41e90	-0.09576142
241	0x3d2ddb26	0.042445324
242	0x3e37a013	0.17932157
243	0x3ca22ac3	0.019795781
244	0x3d22eaeb	0.039774816
245	0xbc8093be	-0.015695449
246	0x3d126624	0.03574194
247	0x3e124a34	0.14286119
248	0x3d5f12a7	0.054461148
249	0x3de20886	0.11036782
250	0x3e29725c	0.16547531
251	0x3e06388b	0.13107507
252	0x3dfaafb2	0.122405425
253	0xbe0e5c5a	-0.13902417
254	0xbd959faa	-0.07305844
255	0x3dbc7ab0	0.09203088

predictor/conv1/W f4 [50, 1, 3, 3]
0	0xbdac7b1e	-0.0842192
1	0xbd0d61f4	-0.034517244
2	0xbb1d2080	-0.002397567
3	0xbdfc403c	-0.12316939
4	0x3eb4466a	0.35209972
5	0xbcf632bb	-0.030053487
6	0xbef6443e	-0.4809894
7	0x3f081fda	0.531736
8	0xbf41dafe	-0.7572478
9	0x3eb7263e	0.35771364
10	0xbebf75ec	-0.37394655
11	0x3e94ec42	0.290865
12	0xbf83cc17	-1.0296658
13	0x3de20559	0.11036176
14	0xbf09138b	-0.53545445
15	0xbe4af1ca	-0.19818798
16	0x3e06d95b	0.13168852
17	0x3e2857cf	0.16439746
18	0xbeca3519	-0.39493635
19	0x3f03ad09	0.51435906
20	0x3f4aaf94	0.7917416
21	0xbd0424ed	-0.032261778
22	0xbe070e4b	-0.13189046
23	0xbe0ced83	-0.13762479
24	0x3d029bad	0.031886745
25	0xbea7303b	-0.32653984
26	0x3e646c04	0.2230683
27	0xbd6f84b6	-0.058476172
28	0x3f09ccce	0.5382813
29	0xbcb29ff8	-0.021804795
30	0x3d2059ec	0.039148256
31	0xbeb90c74	-0.36142313
32	0xbcbd93d5	-0.02314178
33	0x3d9e6dd9	0.077357955
34	0xbda3ba57	-0.07994526
35	0xbe0ef7d4	-0.13961726
36	0x3d3c7d4f	0.04601794
37	0xbe5b39ea	-0.21408811
38	0xbde1b019	-0.11019916
39	0x3e0570d7	0.13031326
40	0x3ed59908	0.41718316
41	0xbf7a8e6c	-0.9787357
42	0x3e0b3bd9	0.13597049
43	0x3e4bdb16	0.19907793
44	0xbecea261	-0.4035826
45	0x3e3cb956	0.18430075
46	0xbea5bf86	-0.32372683
47	0x3df12f53	0.117766045
48	0xbed6a78f	-0.41924712
49	0x3eba7d29	0.36423615
50	0x3f87dbab	1.0613912
51	0x3f341302	0.70341504
52	0x3d80acb8	0.062829435
53	0x3ee55841	0.44793895
54	0xbef45ba5	-0.4772617
55	0xbf09848a	-0.53717864
56	0x3b5c1332	0.0033580777
57	0xbba5f67b	-0.005064783
58	0x3d218773	0.039435815
59	0x3d32a590	0.043614924
60	0x3e9e6bb8	0.30941558
61	0x3df200ec	0.11816582
62	0xbe0e0f85	-0.13873108
63	0x3da45bac	0.080252975
64	0xbf87485c	-1.0568957
65	0x3df7b156	0.12094371
66	0x3ccea7a5	0.025226424
67	0x3e86c757	0.2632396
68	0x3ca0d1cc	0.019631289
69	0xbd8b4e0b	-0.06801995
70	0x3b0df090	0.002165828
71	0xbd4fe653	-0.050756764
72	0xbcae2c4a	-0.021261353
73	0x3f24990c	0.6429603
74	0xbe278f12	-0.1636317
75	0xbe401eaa	-0.18761697
76	0x3c1b99d1	0.009497122
77	0x3e4edd7e	0.2020168
78	0xbd9f2b0d	-0.07771883
79	0x3d700dcc	0.058606908
80	0x3e2d6497	0.16932903
81	0xbc093249	-0.008373805
82	0x3cee79aa	0.029110748
83	0x3e4f0958	0.20218408
84	0xbd79101a	-0.06080637
85	0x3de67cd5	0.112542786
86	0xbf16920d	-0.58816606
87	0xbd7e25c5	-0.06204774
88	0x3e998b9b	0.29989323
89	0xbe0b9b17	-0.13633381
90	0xbf12e144	-0.5737498
91	0x3e21b6eb	0.15792434
92	0x3ed602de	0.41799062
93	0x3e989fec	0.2980951
94	0x3e705167	0.23468553
95	0x3c583ff2	0.0131988395
96	0x3ee1786f	0.44037196
97	0x3e459483	0.19294934
98	0xbf19b4f2	-0.60041726
99	0x3c720823	0.014772448
100	0xbca734a9	-0.020410853
101	0xbe96f245	-0.29481712
102	0xba83da31	-0.0010059533
103	0xbebbe435	-0.36697546
104	0xbe8354c2	-0.25650603
105	0x3d9c2360	0.07623935
106	0x3eab1ade	0.33418936
107	0x3e2c98ea	0.16855207
108	0x3e8c5a46	0.27412623
109	0xbe461145	-0.19342525
110	0x3d9f7841	0.077866085
111	0x3d45d118	0.04829511
112	0xbeaedd3b	-0.3415316
113	0x3e9131cb	0.28358302
114	0x3ea88496	0.32913655
115	0x3cd48615	0.025942842
116	0x3ea095eb	0.31364378
117	0x3f463ce7	0.7743668
118	0xbd3e795b	-0.046502452
119	0x3ef08a83	0.46980676
120	0xbe0407d3	-0.1289361
121	0xbbc0887a	-0.0058756443
122	0x3e747300	0.23871994
123	0x3e66e139	0.22546853
124	0x3de33e9e	0.11095928
125	0x3e315fd2	0.17321709
126	0xbe88a72d	-0.26690045
127	0xbe8785a5	-0.2646915
128	0x3f3c0bc1	0.73455435
129	0x3ceeb831	0.029140564
130	0x3f7695d7	0.9632239
131	0xbe49a41d	-0.1969151
132	0x3c9ae3e9	0.018907504
133	0x3f32fd13	0.6991741
134	0x3e83b74e	0.25725788
135	0xbd8ba269	-0.06818087
136	0xbd174099	-0.03692684
137	0xbf461a1e	-0.773836
138	0x3e527883	0.20553784
139	0x3dff9753	0.12480035
140	0x3e4f0a05	0.20218666
141	0x3d92319d	0.07138369
142	0xbe6804e6	-0.22658119
143	0x3d7c5236	0.06160184
144	0xbee66c15	-0.45004335
145	0x3e8d1417	0.2755439
146	0xbe9c04d3	-0.3047243
147	0xbde713fe	-0.1128311
148	0x3e2684c0	0.16261578
149	0x3c9efd9d	0.019408042
150	0x3d4a0136	0.04931756
151	0x3ddf6f14	0.10909858
152	0xbd00c341	-0.03143621
153	0xbe929b27	-0.28633997
154	0x3e2c21f9	0.16809835
155	0x3e4ff1ca	0.20307079
156	0xbddeaac2	-0.10872413
157	0x3e9a446a	0.3013032
158	0x3d28ff9f	0.041259404
159	0xbdd8cd14	-0.105859905
160	0x3f14a1e6	0.5805954
161	0xbe865ffb	-0.26245102
162	0x3ec9a784	0.39385617
163	0x3ea91755	0.33025613
164	0x3e79a543	0.24379449
165	0xbe3c13c7	-0.1836692
166	0x3eed3301	0.46327975
167	0xbe4283a4	-0.1899553
168	0x3e0eb006	0.13934335
169	0x3e15a51c	0.14613765
170	0xbeacbb4a	-0.3373664
171	0x3bde397b	0.0067817545
172	0x3cece742	0.028918866
173	0xbd32e129	-0.04367176
174	0x3b501dd2	0.0031756056
175	0x3dfdcaa7	0.123921685
176	0x3e3af8c4	0.18258959
177	0x3e224183	0.15845303
178	0xbf8c4d65	-1.0961119
179	0x3c137d9a	0.009002114
180	0xbe82f915	-0.2558066
181	0xbee5285f	-0.44757363
182	0x3d4cc817	0.049995508
183	0x3eecff8c	0.46288717
184	0xbef0c6a7	-0.4702656
185	0xbe283693	-0.16427068
186	0x3efef61a	0.49797136
187	0x3eb9f162	0.36316973
188	0xbe670e21	-0.22563984
189	0xbd88b717	-0.066755466
190	0xbf52e860	-0.82385826
191	0x3f2ecfb1	0.6828566
192	0x3eba112d	0.3634123
193	0xbc399e02	-0.011329176
194	0xbd8bcdde	-0.068263754
195	0xbd1811d3	-0.037126373
196	0x3e55786b	0.20846717
197	0xbe844b7e	-0.25838846
198	0xbf053e9b	-0.52048653
199	0x3e52a183	0.20569424
200	0x3eb0d430	0.34536886
201	0xbeacbf8c	-0.3373989
202	0xbeedf2ce	-0.46474308
203	0x3e1bc653	0.15212373
204	0x3ef1730b	0.47158083
205	0x3eef2b40	0.46712685
206	0xbe94ab80	-0.29037094
207	0xbe1e4b2b	-0.15458362
208	0xbe27868d	-0.16359921
209	0xbdba3ca6	-0.09093599
210	0x3e9d4a05	0.30720535
211	0x3eb57a63	0.35444936
212	0xbe5eba2f	-0.21750711
213	0xbd0d70d6	-0.034531437
214	0xbe7d844f	-0.24757503
215	0xbec02305	-0.37526718
216	0xbe2b9a80	-0.16758156
217	0x3ecfb2e3	0.40566167
218	0x3d2b6bb8	0.041850775
219	0x3f3f003f	0.7460975
220	0xbd9de823	-0.07710292
221	0xbe8098f2	-0.25116688
222	0x3ec24c2f	0.37948748
223	0x3cbf2576	0.023333292
224	0xbcd65741	-0.026164653
225	0x3f34e8d6	0.7066778
226	0x3d9340ea	0.07190116
227	0x3d9963ab	0.07489713
228	0xbe4a2c3d	-0.19743438
229	0x3d96c64a	0.073620394
230	0xbeb546a3	-0.35405454
231	0x3eafe887	0.34357092
232	0x3d40acbd	0.047039736
233	0x3cefd9c9	0.029278653
234	0xbe13fd4d	-0.14452095
235	0x3dc3c28e	0.09558593
236	0x3c27852b	0.010224621
237	0xbf8285a4	-1.0197034
238	0xbe065369	-0.13117756
239	0x3e44474f	0.19167827
240	0x3e525442	0.20539954
241	0xbf91c36b	-1.1387762
242	0xbe6ca298	-0.231089
243	0x3e6bf7bd	0.23043723
244	0x3e7109bd	0.23538871
245	0xbe806a58	-0.25081134
246	0xbdd748b6	-0.105119154
247	0xbe832717	-0.2561576
248	0xbe8b51d9	-0.27210882
249	0x3f5e89ed	0.8692921
250	0x3d890660	0.06690669
251	0xbefe72f0	-0.49697065
252	0x3d24d5e1	0.040243033
253	0xbd64014d	-0.055665303
254	0xbf1315a2	-0.57454884
255	0x3e18822e	0.1489341

predictor/bn6/beta f4 [50]
0	0xbe4bedbb	-0.19914906
1	0xbc5963e7	-0.0132684475
2	0xbe3ca7df	-0.18423413
3	0xbadead1a	-0.0016988844
4	0xbe25d284	-0.16193587
5	0xbd98c0d1	-0.07458652
6	0xbde648af	-0.11244332
7	0xbe989c09	-0.29806545
8	0xbe17cc68	-0.14824069
9	0xbe7cfb49	-0.24705233
10	0xbe03763d	-0.12838073
11	0xbe616925	-0.22012766
12	0xbe22cb6e	-0.15897915
13	0xbe6e63b8	-0.23280227
14	0xbdb01767	-0.08598214
15	0xbe787a7e	-0.24265477
16	0xbe311027	-0.17291318
17	0x3c54a5ad	0.012978953
18	0xbda85392	-0.08219065
19	0xbe26caed	-0.16288348
20	0xbe7c4302	-0.24634936
21	0xbe5c20cb	-0.21496885
22	0xbe146785	-0.14492615
23	0xbdaa3812	-0.08311476
24	0xbe5ec305	-0.21754082
25	0xbd344175	-0.044007737
26	0xbdefcc1b	-0.11708852
27	0xbe5cb0f9	-0.21551885
28	0xbe0e53d8	-0.13899171
29	0xbe30ca1d	-0.172646
30	0xbcea7851	-0.028621824
31	0xbdc48fae	-0.09597717
32	0xbdec6185	-0.11542038
33	0xbe858413	-0.26077327
34	0xbd8d0f57	-0.068876915
35	0xbdefd6e8	-0.11710912
36	0xbe5f5b03	-0.21812062
37	0xbdb9d668	-0.09074098
38	0xbe8e1856	-0.27752942
39	0xbdc228cd	-0.094804384
40	0xbcd0823a	-0.025452722
41	0xbd9fade3	-0.07796838
42	0xbe4dd4c1	-0.2010069
43	0xbe11a880	-0.14224434
44	0xbe58bfa5	-0.21166857
45	0xbdfa83bd	-0.12232158
46	0xbe210634	-0.15725023
47	0xbdb92e17	-0.09041994
48	0x3ca07817	0.019588513
49	0xbe2e5c23	-0.17027335

predictor/bn6/gamma f4 [50]
0	0x3f86cfd6	1.0532176
1	0x3f83fa9b	1.0310854
2	0x3f92ea3c	1.1477733
3	0x3f7c599f	0.9857425
4	0x3f7b08ee	0.980605
5	0x3f7b4bf9	0.981628
6	0x3f75803d	0.958988
7	0x3f79b2ca	0.97538435
8	0x3f881f9a	1.0634644
9	0x3f77949b	0.9671113
10	0x3f799a6b	0.9750125
11	0x3f791fa2	0.9731389
12	0x3f64885d	0.89270574
13	0x3f8a92f3	1.0826095
14	0x3f70f043	0.9411661
15	0x3f83f436	1.0308902
16	0x3f7ae6f6	0.9800867
17	0x3f8cb9cc	1.0994201
18	0x3f8c611b	1.0967134
19	0x3f5fc2be	0.8740653
20	0x3f738645	0.95126754
21	0x3f9158ba	1.1355202
22	0x3f849f32	1.0361083
23	0x3f6fa133	0.93605345
24	0x3f80d672	1.0065444
25	0x3f76f3f3	0.96465987
26	0x3f79bc33	0.97552794
27	0x3f5ffe1c	0.87497115
28	0x3f823b4b	1.0174345
29	0x3f680c7f	0.9064407
30	0x3f6c1af9	0.92228657
31	0x3f83ee98	1.0307188
32	0x3f7c028d	0.9844139
33	0x3f7c7dae	0.9862927
34	0x3f77fd30	0.9687071
35	0x3f78afd2	0.9714328
36	0x3f83a02f	1.0283259
37	0x3f702969	0.93813187
38	0x3f7ea15a	0.9946495
39	0x3f6d0d52	0.9259845
40	0x3f7f59e0	0.99746513
41	0x3f7e634d	0.9937027
42	0x3f736b0a	0.95085204
43	0x3f815c9f	1.0106391
44	0x3f86ec73	1.0540909
45	0x3f7cf4ff	0.98811334
46	0x3f86d9f6	1.0535266
47	0x3f8f4561	1.1193048
48	0x3f7047a3	0.9385931
49	0x3f84c1e9	1.0371677

predictor/bn6/avg_var f4 [50]
0	0x402827fd	2.6274407
1	0x406d1115	3.7041676
2	0x402ec98e	2.731052
3	0x4049989d	3.1499398
4	0x404f9451	3.2434275
5	0x403274fa	2.7883897
6	0x4032fd93	2.796727
7	0x405d1ea5	3.4549954
8	0x402046e9	2.504328
9	0x4037f1c8	2.8741322
10	0x3fffa135	1.9971071
11	0x4056bdf3	3.3553436
12	0x402a1923	2.6577842
13	0x40a534a7	5.1626773
14	0x403a40d8	2.9102077
15	0x402e189e	2.7202525
16	0x401e5227	2.4737642
17	0x402955a7	2.6458528
18	0x404b4c9a	3.1765504
19	0x4054e6cd	3.326587
20	0x4007937b	2.1183765
21	0x40402d9b	3.0027835
22	0x4019fd87	2.406099
23	0x401a076b	2.4067028
24	0x4061128a	3.5167565
25	0x4029563e	2.6458888
26	0x40271793	2.6108139
27	0x40424347	3.0353563
28	0x401b9ca4	2.4314356
29	0x4023907a	2.5556931
30	0x404f2040	3.2363434
31	0x402c7c8e	2.6951022
32	0x40260e95	2.59464
33	0x401c82c7	2.445482
34	0x40915972	4.5421686
35	0x4045f3f7	3.0930154
36	0x40758cf4	3.836728
37	0x40571c27	3.3610933
38	0x4047bfd3	3.121083
39	0x400ca565	2.197595
40	0x401ecbb0	2.481182
41	0x404d465c	3.2074194
42	0x401f133c	2.485549
43	0x402322da	2.5490022
44	0x403f6d4c	2.991046
45	0x402d93ca	2.7121453
46	0x4052f062	3.2959218
47	0x403af0e0	2.9209518
48	0x404b828c	3.179843
49	0x40396688	2.896883

predictor/bn6/avg_mean f4 [50]
0	0xbf62c62c	-0.88583636
1	0xbee18e7d	-0.44054022
2	0xbf2fcbb3	-0.68670195
3	0xbf5e4b28	-0.8683343
4	0xbdbcc46b	-0.09217151
5	0xbfe9ad45	-1.8256003
6	0x3e0e63ac	0.1390521
7	0x3e51a72e	0.2047393
8	0xbf3531cc	-0.7077911
9	0xbeed7714	-0.46379912
10	0xbf9442ed	-1.1582924
11	0xbf5b664a	-0.85702956
12	0xbfcfd44b	-1.6236662
13	0x3f10c736	0.5655397
14	0xbf192185	-0.5981677
15	0x3f796327	0.9741692
16	0x3edbef57	0.4295604
17	0xc013bafb	-2.3082874
18	0xbfbcaf90	-1.4741077
19	0xbf0b3a48	-0.54385805
20	0xbead5e6b	-0.33861098
21	0xbf13bdf4	-0.5771172
22	0xbeec486c	-0.46149004
23	0xbdda1a68	-0.10649568
24	0xbf33627f	-0.7007217
25	0xbf856eef	-1.0424479
26	0xbfa51cd1	-1.2899419
27	0x3ff615d0	1.9225407
28	0xbf7337fb	-0.95007294
29	0xbeee422f	-0.4653487
30	0xbf8fd5fa	-1.1237175
31	0xbfe55ccc	-1.7918944
32	0xbe4c3fca	-0.19946209
33	0x3f6781dd	0.9043253
34	0xbfea734a	-1.8316433
35	0xbf3a4116	-0.72755563
36	0x3f272070	0.6528387
37	0xbfa60af3	-1.2972091
38	0xbfc82f31	-1.5639402
39	0xbe4bcd74	-0.19902593
40	0xc00a4337	-2.1603525
41	0xc008af78	-2.1357098
42	0xbe776250	-0.24158597
43	0xbf420f2b	-0.75804394
44	0xbecaeed9	-0.3963535
45	0xc0161d4f	-2.3455389
46	0xbfb270e2	-1.3940699
47	0xc02d757b	-2.7102954
48	0xbf0a09fc	-0.53921485
49	0x3f1ab4a7	0.60431904

predictor/bn7/beta f4 [50]
0	0xbdac8fdf	-0.08425879
1	0xbd811519	-0.06302852
2	0xbe5f943f	-0.21833895
3	0xbe538e48	-0.20659745
4	0xbe5a337f	-0.21308707
5	0xbe4c1f7e	-0.19933888
6	0xbe04645e	-0.12928912
7	0xbd650ee1	-0.055922393
8	0xbde6b2f5	-0.11264602
9	0xbe3123ce	-0.17298815
10	0xbe4f2808	-0.20230114
11	0xbe60d0ae	-0.21954605
12	0xbe23201b	-0.15930216
13	0xbe35c3b9	-0.17750444
14	0xbe0a52b8	-0.13508117
15	0xbe2659bf	-0.16245173
16	0xbe1fd2f5	-0.15607817
17	0x3da1b919	0.07896633
18	0xbe0d64f8	-0.13808048
19	0xbe6be6f8	-0.23037326
20	0xbe156300	-0.14588547
21	0x3d90f112	0.070772305
22	0xbe06d4c6	-0.13167104
23	0xbe85e79c	-0.26153266
24	0xbe9aa037	-0.3020036
25	0x3d4d36f9	0.050101254
26	0xbe3f8bd6	-0.18705687
27	0xbda61efa	-0.08111377
28	0xbd6b0f80	-0.05738783
29	0xbe2b31e9	-0.16718258
30	0xbe786684	-0.24257857
31	0xbe5237d4	-0.20529109
32	0xbe5aee1a	-0.21379891
33	0xbe3241f7	-0.17407976
34	0xbcb9d003	-0.022682196
35	0xbdb4a006	-0.088195845
36	0xbe65d20c	-0.22443408
37	0xbe0d7d86	-0.13817415
38	0xbdc2ff16	-0.0952131
39	0xbe1bc6e0	-0.15212584
40	0xbdebdaf4	-0.11516371
41	0xbdfa9e85	-0.122372665
42	0xbd27a318	-0.040927023
43	0xbca1e7f5	-0.019763926
44	0xbe0db447	-0.13838302
45	0xbbf5746d	-0.0074906857
46	0xbe130688	-0.1435796
47	0xbe192f28	-0.14959395
48	0xbe438d19	-0.19096793
49	0xbd9308d2	-0.07179417

predictor/bn7/gamma f4 [50]
0	0x3f73c73a	0.9522587
1	0x3f6b0070	0.9179754
2	0x3f5fdc33	0.8744537
3	0x3f67dba8	0.90569544
4	0x3f676dc0	0.9040184
5	0x3f7ee9ea	0.99575675
6	0x3f60a258	0.87747717
7	0x3f896522	1.0733988
8	0x3f8830fc	1.0639949
9	0x3f75ba29	0.9598718
10	0x3f6bd4e8	0.92121744
11	0x3f76ca11	0.9640208
12	0x3f6f9606	0.9358829
13	0x3f861ad1	1.0476934
14	0x3f5c1d48	0.8598218
15	0x3fabec21	1.3431436
16	0x3f6aedd2	0.91769135
17	0x3f92995a	1.1453049
18	0x3f7441fe	0.95413196
19	0x3f7c9fee	0.98681533
20	0x3f663aa1	0.8993321
21	0x3f84faf3	1.0389084
22	0x3f714e10	0.9425974
23	0x3f82d941	1.0222551
24	0x3f8d7b65	1.1053282
25	0x3f820aba	1.0159523
26	0x3f74f44d	0.95685273
27	0x3f990f0c	1.1957717
28	0x3f8b77e2	1.089596
29	0x3f6df573	0.9295265
30	0x3f8f91bf	1.1216353
31	0x3f6ef77b	0.93346375
32	0x3f7633ff	0.9617309
33	0x3f76e930	0.96449566
34	0x3f6bf75b	0.9217431
35	0x3f826c9f	1.0189399
36	0x3f75dd7e	0.96041095
37	0x3f6f84c8	0.93561983
38	0x3f5ce423	0.8628561
39	0x3f8c2e7e	1.0951688
40	0x3f702534	0.9380677
41	0x3f73aa14	0.95181394
42	0x3f62861f	0.884859
43	0x3f81b2e3	1.0132717
44	0x3f7e1985	0.9925769
45	0x3f7cda5e	0.987707
46	0x3f84f610	1.0387592
47	0x3f81dc82	1.0145419
48	0x3f811892	1.0085623
49	0x3f7b7e4c	0.9823959

predictor/bn7/avg_var f4 [50]
0	0x403cefdc	2.9521399
1	0x4075592c	3.8335676
2	0x405f228b	3.4864833
3	0x402251e2	2.5362477
4	0x403b63ac	2.9279585
5	0x401ef987	2.48398
6	0x40193f7c	2.3944998
7	0x4048c348	3.136919
8	0x409267dc	4.575178
9	0x4069f10c	3.6553373
10	0x401f3e54	2.4881792
11	0x402b762f	2.6790884
12	0x40374bce	2.8640018
13	0x40335cba	2.8025346
14	0x40536ec5	3.3036358
15	0x40f3960c	7.6120663
16	0x4031bdb1	2.7772028
17	0x40603d35	3.5037358
18	0x400761fd	2.1153557
19	0x40118aa7	2.2740877
20	0x40441a29	3.0640967
21	0x4052e6b4	3.295331
22	0x3fffaea7	1.9975175
23	0x406c34b1	3.690716
24	0x40580a96	3.375646
25	0x40195383	2.3957222
26	0x40242b4b	2.5651424
27	0x4043e780	3.0610046
28	0x40478653	3.1175735
29	0x4017ff11	2.374943
30	0x4024155f	2.5638044
31	0x4016abdb	2.3542392
32	0x4055520f	3.3331335
33	0x40398a68	2.8990726
34	0x40a17b0e	5.0462713
35	0x40207008	2.5068378
36	0x4006e185	2.1075146
37	0x4054517d	3.3174736
38	0x402536b4	2.5814638
39	0x40257fa9	2.5859168
40	0x401f0708	2.4848042
41	0x4020b924	2.5113
42	0x40203149	2.5030081
43	0x4042824b	3.0392025
44	0x4046f303	3.1085823
45	0x4078a018	3.8847713
46	0x4053fd60	3.3123398
47	0x40311ed5	2.7675068
48	0x403dc723	2.9652793
49	0x401bc74d	2.4340394

predictor/bn7/avg_mean f4 [50]
0	0xbf65a9ee	-0.8971242
1	0xbef3ed4c	-0.4764198
2	0xbf2e8911	-0.68177897
3	0xbf180b45	-0.59392196
4	0xbf2ef7a8	-0.68346643
5	0xbf9a7bd8	-1.2069044
6	0xbf72a651	-0.9478503
7	0xbf91b33f	-1.1382827
8	0x3fbb0379	1.4610435
9	0x3f9cfe93	1.226519
10	0xbe6296fd	-0.2212791
11	0x3ea18f35	0.3155457
12	0xbe46bc1b	-0.19407694
13	0xbfefc05b	-1.8730577
14	0xbfaa8d69	-1.3324405
15	0xc00161c0	-2.0215912
16	0xbe4dac8c	-0.20085353
17	0xc03b5cae	-2.9275317
18	0xbf600f5d	-0.8752344
19	0x3ed9dabc	0.42549694
20	0xbeee96f4	-0.46599543
21	0xbf86d50c	-1.0533767
22	0xbf4c126e	-0.7971562
23	0xbfc9ef4b	-1.5776151
24	0xbf003fd5	-0.500974
25	0xbf8385b8	-1.0275183
26	0x3ee11a69	0.43965462
27	0xbfcbad08	-1.591218
28	0xbffd6225	-1.9795576
29	0x3e07a4d0	0.13246465
30	0x3eed4856	0.4634425
31	0xbf23a2f4	-0.6392052
32	0x3d1270cd	0.035752106
33	0xbf99d513	-1.201815
34	0xc017226a	-2.3614755
35	0xbf9efb03	-1.2420353
36	0xbf12c65a	-0.5733391
37	0xbdb4e4c1	-0.08832694
38	0xbf458f90	-0.77172184
39	0xbfe7802e	-1.8085992
40	0xbf0cc50f	-0.5498819
41	0xbf661b37	-0.89885277
42	0xbf8e2954	-1.1106362
43	0xc008b7dd	-2.1362221
44	0xbf2938d1	-0.6610232
45	0xc0019af8	-2.0250835
46	0xbf8c72ca	-1.0972531
47	0xbf6fff75	-0.9374917
48	0xbf6417e8	-0.8909898
49	0xbf78d380	-0.97197723

predictor/bn3/beta f4 [50]
0	0xbdc54753	-0.09632745
1	0xbe59ae30	-0.21257854
2	0xbdd4f846	-0.10398917
3	0xbe5a6347	-0.21326934
4	0xbe071543	-0.13191704
5	0xbe31bc2c	-0.17356938
6	0xbd491e9e	-0.049101464
7	0xbe17c993	-0.14822988
8	0xbe1e5940	-0.15463734
9	0xbd7f39c0	-0.062310934
10	0xbdd4ba06	-0.10387044
11	0x3d222372	0.039584585
12	0xbe697bfd	-0.22801204
13	0xbd968a53	-0.07350602
14	0xbd382393	-0.0449558
15	0xbe044486	-0.12916765
16	0xbe396f08	-0.18108761
17	0xbcc4552a	-0.02396639
18	0xbe325ead	-0.17418928
19	0xbd15e973	-0.036599588
20	0xbe33ce6f	-0.17559217
21	0xbe3399e5	-0.17539175
22	0xbd2e3dc8	-0.042539388
23	0xbe716e28	-0.23577178
24	0xbe9ffcd7	-0.3124759
25	0xbda24839	-0.07923932
26	0xbdfbb06b	-0.122895084
27	0xbe8ae332	-0.2712646
28	0xbd76357b	-0.060109597
29	0xbd0c21b9	-0.034211848
30	0xbe2c3d2d	-0.16820212
31	0xbd05838d	-0.03259616
32	0xbe00c4dc	-0.12575096
33	0xbe576700	-0.21035385
34	0xbe09fed3	-0.13476114
35	0xbe5dddbc	-0.21666616
36	0xbdb0aea9	-0.08627064
37	0xbd30ad9c	-0.043134317
38	0xbe225479	-0.15852536
39	0xbe543cd0	-0.20726323
40	0xbdb5b813	-0.08873
41	0xbebd5d0a	-0.36985046
42	0xbd265ec3	-0.040617716
43	0xbe09f8e9	-0.13473858
44	0xbe6c7b11	-0.23093821
45	0xbd7a07e1	-0.06104267
46	0xbe21ace2	-0.15788606
47	0xbe219d65	-0.15782697
48	0xbd568d18	-0.05238065
49	0xbe9738f5	-0.29535642

predictor/bn3/gamma f4 [50]
0	0x3f828c88	1.0199137
1	0x3f72840d	0.94732744
2	0x3f70b82b	0.9403102
3	0x3f4ee2f9	0.8081508
4	0x3f5ca3c9	0.86187416
5	0x3f9031d3	1.1265205
6	0x3f7b395d	0.98134404
7	0x3f878b6d	1.0589424
8	0x3f744fc8	0.95434237
9	0x3f86e101	1.0537416
10	0x3f941309	1.1568309
11	0x3f82cbdf	1.0218467
12	0x3f824d29	1.0179797
13	0x3f6d8332	0.92778313
14	0x3f87625c	1.0576892
15	0x3f6b47cd	0.91906434
16	0x3f60a57d	0.87752515
17	0x3f852857	1.0402936
18	0x3f6dee2e	0.9294156
19	0x3f81489d	1.0100285
20	0x3f9fd751	1.2487584
21	0x3f8149ec	1.0100684
22	0x3f8367c8	1.0266047
23	0x3f80f1a1	1.0073739
24	0x3f826c19	1.0189239
25	0x3f629d22	0.88521016
26	0x3f71eb07	0.9449925
27	0x3f54a102	0.8305818
28	0x3f7d8d87	0.9904408
29	0x3f97c202	1.1856081
30	0x3f619258	0.8811393
31	0x3f7fe82c	0.9996364
32	0x3f58af1e	0.8464221
33	0x3f6c19da	0.92226946
34	0x3f7de2ee	0.9917439
35	0x3f632735	0.887317
36	0x3f829e9f	1.0204657
37	0x3f9eb566	1.2399108
38	0x3f693a6f	0.9110479
39	0x3f6bf734	0.9217408
40	0x3f676340	0.9038582
41	0x3f8fc74e	1.1232698
42	0x3f6b4dec	0.91915774
43	0x3f792c4d	0.9733322
44	0x3f60ee2b	0.87863415
45	0x3f8701f4	1.0547471
46	0x3f875fdc	1.0576129
47	0x3f8dba26	1.1072433
48	0x3f76ec67	0.9645447
49	0x3f4c1ff7	0.79736274
