model.npz (npz, 689100 bytes, 46 tensors)

predictor/bn5/beta f4 [50]
000000 e3 65 f7 bd 84 a9 09 ba be 66 08 be bb a1 67 be
       -0.1207998 -0.0005251395 -0.13320443 -0.22620289
000010 d0 60 89 be 84 f3 5d be 76 88 e7 bd 01 de 4d be
       -0.26831675 -0.21674925 -0.11305325 -0.20104219
000020 06 2f 75 be 4f 3f 9b bc d9 fa 80 be 7d db 0a be
       -0.2394372 -0.018951086 -0.25191382 -0.1356029
000030 90 c2 67 be e3 da b3 bd 3a 12 f9 bd 8e 81 73 be
       -0.22632813 -0.08781984 -0.121616796 -0.2377989
000040 47 6e cd 3d c8 d9 98 bd 92 2c 30 be 32 cf 46 be
       0.10030799 -0.074634135 -0.17204502 -0.19414976
000050 7f bd dc bd cb 56 8e 3d 62 f8 1a be 29 c9 9b be
       -0.10778331 0.06950148 -0.15133813 -0.3042691
000060 e9 16 1c be ce 06 76 be 9c 50 97 bc 36 73 27 be
       -0.15243115 -0.24026033 -0.018471055 -0.16352543
000070 41 c2 44 bc b3 9c 9e bd d3 d5 65 be ba 9f c8 bd
       -0.012009204 -0.07744732 -0.22444849 -0.097960904
000080 fb ca ac be e0 84 4a 3d a8 0a da bd ff 93 42 be
       -0.33748612 0.049443126 -0.10646564 -0.19001769
000090 a8 21 0a be 08 83 d6 bd fa e9 07 be d4 c7 64 be
       -0.13489401 -0.10474211 -0.13272849 -0.22341853
0000a0 df d1 07 be fd f7 81 bc 02 3b 13 be b8 85 5e be
       -0.13263653 -0.01586532 -0.14377978 -0.21730697
0000b0 2d 1b 40 be 1d fb 89 be f8 50 0f be 05 ea 23 be
       -0.18760367 -0.26949397 -0.13995731 -0.1600724
0000c0 c9 a9 fa bd 57 07 92 be
       -0.12239415 -0.28521225

predictor/bn5/gamma f4 [50]
000000 b9 25 6f 3f e8 31 7a 3f ae 84 74 3f 32 5a 7c 3f
       0.93416935 0.977324 0.95514953 0.9857513
000010 38 f0 76 3f 62 29 84 3f c3 46 7d 3f 92 a9 73 3f
       0.96460295 1.0325129 0.989361 0.9518062
000020 4a 59 8b 3f 37 f6 83 3f 45 38 72 3f 56 1a 7c 3f
       1.0886624 1.0309514 0.9461711 0.98477685
000030 7e c2 71 3f d2 3f 82 3f 7b d1 6a 3f 96 dd 93 3f
       0.94437397 1.0175726 0.9172589 1.1551998
000040 c4 6f 7b 3f af 75 76 3f e2 c3 82 3f 6c 3c 80 3f
       0.98217416 0.9627332 1.0216029 1.0018439
000050 4c 65 76 3f 5e 4d 87 3f d5 40 78 3f 32 ba 87 3f
       0.96248317 1.0570486 0.96973926 1.0603697
000060 31 3e 55 3f db 58 62 3f 39 ae 6e 3f 08 48 84 3f
       0.8329802 0.8841683 0.9323459 1.0334482
000070 71 12 79 3f 59 d7 80 3f d0 3b 76 3f 7d b4 74 3f
       0.97293764 1.0065719 0.96185017 0.95587903
000080 f6 7f 7c 3f 2d 7e 96 3f 02 c2 77 3f 87 fb 70 3f
       0.9863275 1.1757256 0.9678041 0.941338
000090 66 21 7e 3f b3 d6 6b 3f 5e 3b 78 3f 4e a9 6a 3f
       0.9926971 0.9212448 0.9696559 0.9166459
0000a0 cf dd 7c 3f 03 2a 85 3f 43 dd 80 3f 71 c7 86 3f
       0.98775953 1.0403446 1.0067524 1.0529615
0000b0 f1 9c 8e 3f 9b 49 76 3f 7a 88 81 3f aa 7e 70 3f
       1.1141645 0.96206063 1.0119774 0.93943274
0000c0 63 11 7b 3f 2f 31 7d 3f
       0.98073405 0.98903173

predictor/bn5/avg_var f4 [50]
000000 1b 7d 17 40 9a a3 5c 40 a0 3e 22 40 1b 6a 30 40
       2.3670108 3.4474854 2.5350723 2.7564762
000010 e1 e5 36 40 00 67 1d 40 98 6f f8 3f a6 dd 22 40
       2.8577807 2.4594116 1.9409056 2.5447783
000020 36 24 2b 40 d7 d4 3c 40 0e db 03 40 16 cb 20 40
       2.6740851 2.9504907 2.060245 2.5123954
000030 df 49 38 40 7c d2 1f 40 7c 50 16 40 21 83 34 40
       2.8795087 2.497222 2.3486624 2.8205035
000040 b9 64 57 40 d9 bf 16 40 72 02 98 40 c8 bd 31 40
       3.3655226 2.3554595 4.7502985 2.7772083
000050 7e cb fd 3f 81 e8 3d 40 e6 27 25 40 a2 9e 05 40
       1.9827726 2.967316 2.5805602 2.0878072
000060 64 cd 1d 40 1a fc 34 40 b0 34 0b 40 fc 23 24 40
       2.465661 2.827887 2.1750908 2.5646963
000070 88 66 1e 40 1d 97 fb 3f c6 8c 18 40 e3 7c 36 40
       2.475008 1.9655491 2.3835921 2.8513725
000080 02 c0 2f 40 77 26 f8 40 84 fa 05 40 9b ee d0 3f
       2.7460942 7.7546954 2.0934153 1.6322817
000090 87 e4 1d 40 a2 d9 3d 40 a0 0d 9a 40 01 1e 16 40
       2.4670732 2.9664083 4.814163 2.3455813
0000a0 7e a6 30 40 ad 76 49 40 33 f1 4a 40 98 d2 1a 40
       2.7601619 3.1478684 3.1709716 2.4191036
0000b0 d6 75 46 40 ed 2c 26 40 48 0e f9 3f 28 27 4a 40
       3.1009421 2.596492 1.9457483 3.15864
0000c0 a7 7e 83 40 3d 8c 36 40
       4.1092105 2.8523095

predictor/bn5/avg_mean f4 [50]
000000 88 74 83 3e dc 3d 8d bf 0b 01 bc 3e 7b 3d d1 bf
       0.25674844 -1.1034503 0.36719546 -1.6346887
000010 24 ba 99 3e ac a8 c7 bc a4 7e ef 3c 89 08 85 be
       0.30024827 -0.024372421 0.029235192 -0.25983074
000020 d4 f9 23 3f 34 41 1d 3c 8b 3c 06 3d 1a c0 a8 3e
       0.6405308 0.009598065 0.032772582 0.32959062
000030 89 4f 4e be 53 8a cf be d2 f2 86 bf e5 50 69 be
       -0.20147528 -0.4053522 -1.0542853 -0.22784765
000040 1e 11 94 bf ed 5b 9b bf 84 64 d8 bf 7c 47 25 3f
       -1.1567724 -1.2137429 -1.6905675 0.645622
000050 26 ad 42 bf 2a 77 df bf 2f b9 06 bf 30 72 07 bf
       -0.76045454 -1.7458241 -0.5262632 -0.5290861
000060 6a ef d1 bf c6 94 37 be a2 b4 2a bf 11 50 f6 bf
       -1.6401188 -0.17927846 -0.66681874 -1.9243184
000070 14 f9 df 3e 12 e3 80 3e 32 7e fd be bf 3f aa bf
       0.4374472 0.2517324 -0.49510342 -1.3300704
000080 a2 ad e4 3d 53 24 1a c0 a2 db 19 bf 16 9e 04 3e
       0.1116593 -2.408467 -0.6010076 0.1295093
000090 cc 6d 39 bf c0 27 d8 bf be 95 26 c0 bc b0 44 bf
       -0.7243316 -1.6887131 -2.6028895 -0.76832175
0000a0 e5 25 0e bf 8e c5 c0 bf 0f 1f a2 bf 5f 77 2f bf
       -0.5552657 -1.5060289 -1.2665728 -0.6854152
0000b0 44 0e 06 bf c5 88 26 3f f3 6e be be 3c fd 88 be
       -0.5236552 0.65052444 -0.37194023 -0.26755702
0000c0 06 50 b2 bf 4e 9b 32 3f
       -1.3930671 0.69768226

predictor/conv7/W f4 [50, 50, 3, 3]
000000 16 76 1d 3e 09 d1 c5 3d a9 3a e6 3c 61 74 01 3e
       0.15377077 0.09659011 0.028104143 0.12642051
000010 ab 36 c0 bd 71 27 6e bd da 84 09 3d 0e fd 3c bd
       -0.09385427 -0.058143083 0.033573963 -0.04613977
000020 f3 df 05 3d 08 e1 72 bd 06 15 45 3e d3 cf 21 3e
       0.032684278 -0.059296638 0.19246301 0.15801935
000030 bf 20 59 3d 9a a6 82 bd e5 d8 81 3d 2e ea 03 be
       0.053009745 -0.06379433 0.063401975 -0.12882301
000040 73 87 d0 bd b0 d4 9e bd cf e4 32 3d b6 d6 d7 3d
       -0.10182085 -0.07755411 0.04367524 0.10539
000050 65 47 47 3e 3c 36 30 bc 4c 84 92 be 86 a9 13 3e
       0.19460829 -0.010755118 -0.2861656 0.14420137
000060 85 a0 ce bc 52 e1 b9 bd d4 40 85 3d ac b5 d8 3d
       -0.025223026 -0.090761796 0.065065056 0.10581526
000070 ef ae 33 bd 62 31 be bc 1b 1e 68 3d a0 fd 43 b8
       -0.043868 -0.023216907 0.056669336 -4.672783e-05
000080 8d 48 21 be d3 99 c7 bd 01 92 37 bd a9 3e 09 be
       -0.15750332 -0.097461365 -0.044816975 -0.13402809
000090 16 cd 80 3d 11 f4 0b 3e 62 7a a6 bd 34 4e 2c 3d
       0.06289117 0.13667323 -0.081288114 0.042066768
0000a0 e8 2d df bd 94 e1 7d bd df bd b6 3d 0c d8 50 bd
       -0.10897428 -0.061982706 0.08922934 -0.05098729
0000b0 0c 20 13 bd ea 9a 2a bd 08 86 64 bd e7 5f 3b be
       -0.035919234 -0.041651644 -0.055791885 -0.18298303
0000c0 52 fd e1 bb 21 5d 2b bd 60 2b a8 3d 2d 36 a9 3d
       -0.006896653 -0.04183686 0.08211398 0.08262286
0000d0 5b ee d4 b9 fa 47 86 3d b8 a1 4c 3c 09 54 ae bd
       -0.0004061338 0.06556697 0.012489729 -0.08512122
0000e0 92 16 8b bd cf 6d b1 3d 77 4b 1e bd f1 65 d3 3b
       -0.06791414 0.086635225 -0.038646188 0.0064513613
0000f0 7e 92 16 bd fc 58 83 3b 6b de db bc aa b8 fa bc
       -0.0367608 0.0040084105 -0.026839456 -0.030605633
000100 5d 56 4d bd 53 97 6d 3b 2f 53 e6 bc 60 aa 82 bd
       -0.05013119 0.0036253526 -0.028115837 -0.06380153
000110 2d e4 1e 3d 88 69 c8 3c 63 9c 0c be b1 6d ae 3d
       0.038791824 0.024464384 -0.13731532 0.08517016
000120 cc a0 c4 3d 45 dd 0d bd 11 99 fd bb ab a1 3c bd
       0.09600982 -0.034634847 -0.007739194 -0.046052616
000130 94 06 a7 bc fb d5 10 be f6 a4 80 3d af 30 b3 3d
       -0.020388879 -0.14144127 0.06281464 0.0874952
000140 dc 3d 8b bd 24 bb 87 bd d7 03 0a 3d d2 20 a0 3d
       -0.06798908 -0.06627491 0.03369507 0.0781876
000150 30 0c 2e bd 7d 92 e1 3c eb a0 ae 3c 03 ce 0b 3d
       -0.04249209 0.027535671 0.021316966 0.034132015
000160 40 c5 b6 3d e3 5b 3f be b3 23 c1 3d e9 b4 15 3e
       0.08924341 -0.18687396 0.09430637 0.14619793
000170 03 f6 0a 3e 2f 9c fd bd 7d 7b 50 3c db 2c 96 3c
       0.13570409 -0.12383305 0.012724754 0.018331936
000180 ef d1 13 3d 72 ce 69 3d e4 fe 97 3d 83 20 7a 3a
       0.03608888 0.057081647 0.074216634 0.0009541588
000190 16 c4 c7 3b 70 89 c8 bd cc 23 45 bb 60 a5 8b 3c
       0.0060963733 -0.09791839 -0.003008115 0.01704663
0001a0 d9 f2 05 be b0 ff 23 3b 95 bd 54 3b a4 ab 9b bc
       -0.1308092 0.0025024228 0.0032461633 -0.019002743
0001b0 8e c5 17 bc bd 93 b8 3d a9 d1 cc bd 05 88 88 3c
       -0.009263409 0.09012554 -0.10000927 0.016666422
0001c0 81 4a 19 bd a1 4a aa bd 5f f4 6a 3e f9 ad 26 bc
       -0.037424568 -0.083150156 0.22944783 -0.010173314
0001d0 f5 8b c4 3d 5f 0d ee bb c4 55 ca 3d 25 65 e1 3c
       0.09597007 -0.0072647776 0.0987964 0.02751405
0001e0 f1 55 1b bb c6 6f f3 3c be 83 5d 3d 49 e8 63 bd
       -0.0023702348 0.029716384 0.054080717 -0.055641446
0001f0 57 0e f6 3d 2c c8 39 3d 3a 4c e6 3b 11 1e ca bd
       0.12014454 0.045356914 0.00702813 -0.09869016
000200 ec 07 22 bd b0 b5 dd 3d b4 70 00 3d 45 f6 bc bc
       -0.039558336 0.1082567 0.031357482 -0.02306665
000210 1c b1 d4 3d a5 51 fd 3d 48 e2 7e bd c4 fa 5d be
       0.103853434 0.12369088 -0.062227517 -0.2167769
000220 c0 1f 1f bd 6f 5a 28 bd 13 44 32 3e 88 8f 76 bd
       -0.03884864 -0.04110187 0.17408781 -0.060195476
000230 43 2d 5e bc 90 28 dd 3d db 73 be bc 36 fe 29 3d
       -0.013560596 0.10798752 -0.023248604 0.0415022
000240 78 11 c0 3a 65 54 16 3d 27 1d e2 bc b1 25 94 3d
       0.0014653644 0.03670158 -0.027601792 0.072337516
000250 d5 6f d3 bd a3 52 80 bd b9 58 a6 bd 62 93 6c be
       -0.10324065 -0.06265762 -0.08122391 -0.23103097
000260 11 3d 1f 3c c0 6f 48 bd 74 2a 04 3d b6 96 23 3d
       0.009719149 -0.048934698 0.03226705 0.03993865
000270 89 88 0c be fe 21 2b bd 10 fc d1 3d 9d 23 1f 3d
       -0.13723959 -0.041780464 0.10253155 0.038852323
000280 61 ca 8a 3d 86 fa 30 3d 5e b9 19 3e 80 1b 56 3e
       0.06776882 0.043207668 0.15012118 0.20908928
000290 ed 65 67 3d 28 84 48 bd cf 03 2d 3d fb c3 b8 3d
       0.05649369 -0.04895416 0.04223996 0.09021755
0002a0 ae 00 1a bd b8 eb 69 bd f4 b0 19 3e 74 9b 09 3d
       -0.037598304 -0.057109565 0.15008909 0.033595517
0002b0 bc 5e 85 bd 9c 47 fe bd ab c5 42 3d 64 14 81 3d
       -0.0651221 -0.12416002 0.047551792 0.06302717
0002c0 1f bb 9f bd d3 c8 f0 bc d6 71 08 3e 22 9d 43 bc
       -0.077993624 -0.029392635 0.13324675 -0.011939319
0002d0 4d 93 e2 3c 9f d5 db bd 42 eb 1e be 42 70 5a 3d
       0.02765813 -0.10734104 -0.15519431 0.053329714
0002e0 3e 42 9b bd d0 28 db bd 28 e2 6a 3d 78 8c 3d bd
       -0.07580994 -0.10701144 0.057344586 -0.04627654
0002f0 9a 0e ca bc 1f ac 24 bd 8f 07 fd 3d 77 ec 12 bc
       -0.024665166 -0.04020321 0.12354957 -0.00896751
000300 b7 7a 8a ba 3a 5a 80 3e 72 5d d7 3d b6 81 18 3e
       -0.0010565136 0.25068837 0.1051587 0.14893231
000310 61 5f 81 3d 40 ea 06 3e 0e 67 96 3d 45 d2 1f be
       0.0631702 0.13175297 0.07343875 -0.15607555
000320 a6 13 a6 3c a2 cf 02 3e 9c 4a 98 bd 63 71 ea bd
       0.020273041 0.12774518 -0.074361056 -0.11447408
000330 4c a9 c4 bc f0 90 dc 3d 76 8d 62 3e 68 d5 07 be
       -0.024006508 0.10769832 0.22124276 -0.13265002
000340 d2 16 b0 bc 24 73 62 bd 7f 64 d0 bb 0a b4 c5 bd
       -0.021495257 -0.055285588 -0.0063596363 -0.0965348
000350 36 74 fa bd 42 a0 99 bd b3 8d 43 3d 8f 2a 5f bd
       -0.12229197 -0.0750127 0.047742557 -0.054483946
000360 e1 08 fd bd 41 b5 8b 3d e7 4b 67 3c 98 2d bd bd
       -0.12355209 0.06821681 0.014117218 -0.09237212
000370 de a3 9a bd 72 36 a4 bd 9e b2 3c 3c 49 a1 9c 3c
       -0.075507864 -0.08018197 0.011517195 0.019119876
000380 1e be 43 be 23 a8 c0 bd f3 57 33 3e e0 c6 2f be
       -0.19115493 -0.094070695 0.17514019 -0.17165709
000390 9d c2 03 be 94 f8 0b 3d a5 71 df bd 79 76 ff 3d
       -0.12867208 0.03417261 -0.10910348 0.12473769
0003a0 62 74 a6 bd 13 e6 76 bb 31 b6 d5 3d 20 8d 91 bd
       -0.08127667 -0.0037673756 0.10435141 -0.071069956
0003b0 f3 ff 66 be 46 b9 3c 3e 4e 9c 9f 3d 63 59 f0 bc
       -0.22558574 0.18430051 0.07793485 -0.029339498
0003c0 59 f0 2d bd 01 3b 39 3e 29 3c db 3c fa bf bc bd
       -0.04246554 0.18088914 0.026762085 -0.09216304
0003d0 b3 51 99 3d 6e 72 0e be 88 12 3d bd 63 1e 10 3d
       0.07486286 -0.13910839 -0.04616025 0.03518523
0003e0 4f ed 18 bd 5c 4b 69 3c af f2 d6 3c 69 f8 a5 bd
       -0.03733569 0.0142391585 0.026238767 -0.08104021
0003f0 fd d1 7a 3e 3f be 25 3d 42 93 0d be e1 d7 cc bd
       0.24494167 0.040464636 -0.13825706 -0.10002113

predictor/bn4/beta f4 [50]
000000 ad 71 86 3c 30 24 33 be 0f 7d 44 be c6 43 a2 bd
       0.016411627 -0.17494273 -0.19188331 -0.07923083
000010 6e f4 26 be b6 45 6e be a4 37 2f be 81 dd 4c be
       -0.1630418 -0.2326878 -0.17111069 -0.20006372
000020 ae ab 5b be a9 01 53 be c9 c5 c1 bd 6e ba 15 3d
       -0.2145221 -0.20606102 -0.09461553 0.036554746
000030 ac c1 0f be f2 9f 09 be 15 4a 8e 3b 2f 78 79 bd
       -0.14038724 -0.1343992 0.0043423274 -0.06090563
000040 9a c0 36 be b3 3b 92 bd 64 62 45 bc 18 ae 65 bd
       -0.17846909 -0.07140293 -0.012047384 -0.056074232
000050 a5 e2 07 be 51 f2 84 be a9 6d 7a 3d 69 c1 3d be
       -0.13270052 -0.25966123 0.061139736 -0.18530811
000060 7b 76 c0 bd bf 51 58 be f7 6f 84 be 6d fb 67 be
       -0.09397598 -0.21124934 -0.25866672 -0.22654505
000070 e8 ce f7 bc 6a 30 92 bd aa 8f 2b be df 62 01 be
       -0.030250028 -0.071381405 -0.16754022 -0.12635373
000080 b7 9a 3b be d9 77 17 be a4 1d 2a be 82 eb 4c bd
       -0.18320738 -0.14791812 -0.1661287 -0.050029285
000090 87 30 73 bd 8d 3b fe bd 80 f3 5c bd 84 f9 16 be
       -0.05937245 -0.12413702 -0.053943157 -0.1474362
0000a0 47 27 e7 bc 50 3e a0 be af 62 1d be 46 2f c7 3c
       -0.028216971 -0.3129754 -0.15369676 0.024314534
0000b0 6d 0c 26 be 62 84 f0 bd 87 71 d2 bd 49 e1 41 be
       -0.16215678 -0.11744 -0.1027556 -0.18933596
0000c0 7a d4 e5 bd 6e b4 06 be
       -0.11222167 -0.13154766

predictor/bn4/gamma f4 [50]
000000 a9 15 79 3f 2e a3 66 3f af 48 72 3f de 26 79 3f
       0.97298676 0.9009274 0.94642156 0.9732493
000010 f6 26 7c 3f 75 bb 74 3f 63 3c 77 3f 78 dd 7e 3f
       0.9849695 0.95598537 0.9657652 0.99556684
000020 ff 12 8f 3f bf 1d 7d 3f 31 0b 75 3f ff 9d 8a 3f
       1.1177672 0.98873514 0.957202 1.0829467
000030 a6 9e 67 3f b5 3a 7a 3f 1f f2 7d 3f f8 73 94 3f
       0.90476453 0.9774583 0.9919757 1.1597891
000040 98 55 7b 3f ff 90 7f 3f 3c 2d 80 3f 5c fa 82 3f
       0.9817748 0.9983062 1.0013804 1.0232654
000050 f8 af 80 3f d5 2a 71 3f b7 6c 93 3f 68 04 6b 3f
       1.0053701 0.9420598 1.1517552 0.918036
000060 fc 7c 6f 3f 8f 2b 8b 3f 52 d5 81 3f 32 9f 65 3f
       0.93550086 1.0872668 1.0143225 0.8969604
000070 5b 16 5c 3f f1 01 71 3f 0d 6f 7e 3f 59 78 85 3f
       0.8597161 0.9414359 0.993882 1.0427352
000080 b5 bd 71 3f ea e9 89 3f 5b b4 85 3f 0c 63 78 3f
       0.94430095 1.077451 1.0445665 0.97026134
000090 c3 6a 87 3f 42 b3 76 3f 4d 19 83 3f ab 6e 77 3f
       1.0579456 0.96367276 1.0242096 0.9665324
0000a0 6d 7e 6f 3f c3 6e 92 3f 19 2d 6f 3f 4b c7 85 3f
       0.93552285 1.1440052 0.9342819 1.0451444
0000b0 8c 2a 80 3f 19 0b 83 3f f5 ee 87 3f 6a 03 6f 3f
       1.0012984 1.0237762 1.0619799 0.93364584
0000c0 f0 8b 7d 3f d3 66 80 3f
       0.9904165 1.003138

predictor/bn4/avg_var f4 [50]
000000 17 e5 70 40 45 d2 1c 40 e2 56 32 40 55 8a 0d 40
       3.7639825 2.4503338 2.786553 2.211568
000010 5a 2b 5d 40 a8 eb 5b 40 a9 db 71 40 53 13 1a 40
       3.455771 3.4362583 3.779032 2.4074295
000020 33 dc 3c 40 81 26 2b 40 42 78 2d 40 99 97 42 40
       2.95094 2.674225 2.710465 3.0405028
000030 1c 1a 31 40 0c 5e 6c 40 0c 34 4f 40 48 8d 77 40
       2.7672186 3.6932402 3.2375517 3.8679981
000040 b4 ce 54 40 57 d1 3a 40 3e fe 15 40 5e 0d 62 40
       3.3251162 2.919027 2.3436427 3.5320659
000050 84 cf 80 40 bf ae 18 40 db df 22 40 c0 bc 4c 40
       4.0253315 2.3856657 2.544913 3.1990204
000060 94 f7 3c 40 fe ef 9e 40 a4 7d 51 40 b2 d6 25 40
       2.952611 4.966796 3.2732935 2.591229
000070 2b b8 43 40 8b a3 20 40 23 f0 26 40 36 90 3b 40
       3.0581157 2.5099819 2.6084068 2.930677
000080 9a 68 74 40 e1 65 24 40 1b eb b5 40 0c f8 26 40
       3.8188844 2.5687182 5.6849494 2.6088896
000090 bb b6 1c 40 5e c4 98 40 17 f8 84 40 c5 93 2c 40
       2.448653 4.7739706 4.1552844 2.6965191
0000a0 14 5e 31 40 72 f5 3e 40 bd 5d 2c 40 9a cd 49 40
       2.771367 2.9837308 2.6932213 3.153174
0000b0 98 7a 62 40 e4 fa 3a 40 ff e4 80 40 8f 5e 2f 40
       3.5387325 2.9215631 4.0279536 2.7401464
0000c0 50 8e 42 40 11 6b 32 40
       3.039936 2.7877848

predictor/bn4/avg_mean f4 [50]
000000 51 f0 cc 3e 59 8f 8f be 2a fb 85 bf c4 90 82 bf
       0.40027097 -0.28039053 -1.0467274 -1.0200429
000010 60 65 14 bf 54 2d 59 bf 74 ee ee bf 4c 86 08 3c
       -0.57967186 -0.8483479 -1.866652 0.0083328
000020 30 1c 5b bf 67 70 72 3e ca e6 72 bf 76 f8 c3 bf
       -0.85589886 0.2367569 -0.94883406 -1.5310199
000030 80 4b f4 bf 8b 6e 4d bf 9a 25 ee 3e 52 18 fd bf
       -1.9085541 -0.802468 0.46513063 -1.9773047
000040 b9 68 10 bf 10 2c 5c bf 2a 30 a0 3e 43 d7 f8 bf
       -0.56409794 -0.86004734 0.31286746 -1.9440693
000050 90 15 27 c0 b1 09 a2 be 6c 1b ec bf e8 75 2d 3f
       -2.610691 -0.3164802 -1.8445868 0.67758036
000060 02 92 83 bf 6c e1 a4 bf 67 4b 36 bf 1d 07 a9 bf
       -1.0278933 -1.2881293 -0.71208805 -1.3205296
000070 50 ce 86 3e 1b 77 07 c0 cf 7a cb bf 2f 56 d6 be
       0.2632928 -2.1166446 -1.5896853 -0.41862628
000080 ae 03 86 3e f8 57 8f bf 02 f1 f6 bf 85 82 06 bf
       0.26174682 -1.1198721 -1.92923 -0.52542907
000090 78 60 e4 bf 2a d6 ea bf 40 3e d3 be 95 40 e3 bf
       -1.784194 -1.8346608 -0.4125843 -1.7754084
0000a0 b9 89 0c bf 6f bf d8 bf e5 43 16 bf 88 a7 25 bf
       -0.5489765 -1.6933421 -0.5869735 -0.6470876
0000b0 4d 86 d3 3f b6 48 a4 bf 7c d6 c1 bf c5 13 20 bf
       1.652536 -1.283469 -1.514358 -0.62530166
0000c0 7d a8 a8 3d 5e d6 57 be
       0.082352616 -0.21077868

predictor/conv1/W f4 [50, 1, 3, 3]
000000 59 46 a6 bd 14 eb be bc 2f 8a 87 bc b6 58 e6 bd
       -0.081188865 -0.023305453 -0.016545383 -0.11247389
000010 19 e3 b5 3e f7 77 fc bc 8e f6 f4 be 7a e4 08 3f
       0.35524824 -0.030818922 -0.47844356 0.5347363
000020 cf f7 3f bf e0 da be 3e c4 37 c9 be 26 93 92 3e
       -0.749875 0.37276363 -0.39300358 0.2862789
000030 34 26 7d bf d9 e5 ef 3d 04 4b 08 bf 1d fc 22 be
       -0.9888642 0.11713762 -0.53239465 -0.15916486
000040 97 42 2a 3e e0 17 3b 3e d2 12 d2 be 63 a0 fa 3e
       0.16626965 0.18270826 -0.41029984 0.4895049
000050 8b 6b 43 3f 28 77 c3 bc 9d e6 25 be 93 e7 0f be
       0.7633597 -0.023860529 -0.16201253 -0.14053182
000060 0f 5d fe 3c 3d cd b1 be 3e 10 70 3e db de 24 bd
       0.031050233 -0.34726897 0.23443696 -0.040251594
000070 b6 c5 06 3f 68 9e af bc 17 bd 29 3d f9 be b9 be
       0.5264543 -0.021437839 0.041440096 -0.36278513
000080 17 6f 91 bc d5 9a cf 3d 52 4f 90 bd 3a 89 03 be
       -0.017753167 0.10136954 -0.07046379 -0.12845317
000090 44 7b 25 3d 60 e0 67 be 7d fb e3 bd c8 92 0e 3e
       0.04040076 -0.22644186 -0.11131952 0.1392318
0000a0 06 49 cc 3e fd 4c 76 bf aa 44 20 3e 37 5b 51 3e
       0.39899462 -0.96211225 0.15651193 0.20444952
0000b0 2d b3 d5 be 6e 87 35 3e 1b 65 af be 1e a9 f2 3d
       -0.41738263 0.17727444 -0.34256825 0.11848663
0000c0 02 09 da be b5 a5 ae 3e a5 d5 84 3f 22 7e 36 3f
       -0.42584997 0.341108 1.0377699 0.71286213
0000d0 1f 28 84 3d 70 41 ea 3e 91 db f3 be a3 15 07 bf
       0.06452965 0.4575305 -0.47628453 -0.5276739
0000e0 c7 dc 5b bb 03 0a 22 bc 62 8b 1b 3d eb a8 c9 3c
       -0.0033548342 -0.009890082 0.037974723 0.02461668
0000f0 e6 1c a0 3e ea 34 f0 3d f2 b7 0a be 0d a3 ac 3d
       0.31272048 0.117288426 -0.13546732 0.08429537
000100 ed c0 85 bf 44 c9 08 3e 70 be d1 3c 0c 94 81 3e
       -1.0449501 0.13358027 0.025603503 0.25308263
000110 b0 f6 b0 3c 03 69 7a bd 1e 0c 04 bc 2d fb 60 bd
       0.021602005 -0.061135303 -0.00805953 -0.05492704
000120 92 e2 95 bc c8 75 1e 3f b5 9d 2a be a6 81 3d be
       -0.018296514 0.6189847 -0.16661723 -0.18506488
000130 49 b2 c8 3c 5e 09 48 3e 4d db be bd 40 93 71 3d
       0.024499075 0.19534823 -0.09319172 0.05897832
000140 f2 c6 3f 3e be 8c 8a 3c 5b 25 0a 3d c0 da 5d 3e
       0.18728235 0.016912814 0.03372703 0.21665478
000150 2b 5c 29 bd 5a 9b c5 3d f4 1d 11 bf de ce 1d bd
       -0.041347664 0.096487716 -0.5668633 -0.038527362
000160 28 23 a5 3e 83 38 fe bd 16 3c 09 bf 4c c3 30 3e
       0.32253385 -0.124131225 -0.5360731 0.17262
000170 af af d2 3e 96 34 a2 3e c3 0e 7c 3e 00 69 7a ba
       0.4114966 0.31680745 0.24615006 -0.00095523894
000180 88 2c e3 3e af 18 48 3e 09 ea 1c bf ac d4 52 3c
       0.44369912 0.19540666 -0.6129461 0.012868088
000190 59 6e 07 bd 60 9b 97 be b1 4a fe bc 49 c9 b8 be
       -0.03306422 -0.2961073 -0.031041475 -0.36091068
0001a0 45 65 7a be 60 95 8a 3d 59 2b a5 3e 00 45 42 3e
       -0.24452694 0.06766772 0.32259634 0.18971634
0001b0 aa 58 8c 3e 92 d0 3b be 96 12 a9 3d 57 3b 18 3d
       0.27411395 -0.18341282 0.08255498 0.037165966
0001c0 c0 6a a6 be a8 f3 a4 3e 59 bc 96 3e 7b 69 62 3d
       -0.3250332 0.32217145 0.29440573 0.055276375
0001d0 d2 97 a8 3e d2 9a 48 3f 71 19 30 bd 96 54 eb 3e
       0.3292833 0.7836124 -0.042993013 0.4596297
0001e0 fc b1 e2 bd 86 f8 d1 bb f6 d9 67 3e 22 76 70 3e
       -0.11069104 -0.0064078 0.22641739 0.23482564
0001f0 8d 82 f4 3d 30 d2 1b 3e 13 47 8c be e6 7c 7c be
       0.11938963 0.15216899 -0.27397975 -0.2465702
000200 e9 d4 39 3f 6c 56 32 3d 0b ce 78 3f 4a 20 42 be
       0.725905 0.04353945 0.97189397 -0.1895763
000210 2f 93 46 3d 96 94 34 3f 51 20 80 3e 11 f2 61 bd
       0.04848021 0.70539224 0.25024655 -0.055162493
000220 a4 45 96 bd 93 f5 3f bf 3c a0 57 3e 78 f1 01 3e
       -0.07337502 -0.7498409 0.21057218 0.1268977
000230 30 e7 59 3e d7 16 29 3d d5 81 74 be 21 f6 4e 3d
       0.21279597 0.041281547 -0.23877652 0.050527696
000240 24 a3 de be 78 69 8f 3e 3d 8a 97 be 75 65 04 be
       -0.4348384 0.28010154 -0.29597655 -0.12929328
000250 95 d5 24 3e a3 84 03 3d 90 18 f1 3c 97 c8 e9 3d
       0.160971 0.032108914 0.029430658 0.114152126
000260 85 44 33 bd a9 f0 8f be 22 30 39 3e ba c6 4d 3e
       -0.043766517 -0.28113297 0.18084767 0.2009534
000270 a5 49 ca bd 43 85 9f 3e 6c e6 3b 3d d6 76 b9 bd
       -0.09877328 0.31156358 0.045874044 -0.09055869
000280 f2 6c 13 3f 2c 44 84 be 8e 46 c1 3e e5 39 b7 3e
       0.5758811 -0.2583326 0.3774914 0.35786358
000290 62 d0 7d 3e 13 0c 32 be 2c bd f1 3e d6 c2 3b be
       0.24786523 -0.17387418 0.4721464 -0.18336043
0002a0 bd 91 12 3e 9d 95 18 3e e2 e7 a2 be ca 9a 66 3b
       0.14313407 0.14900823 -0.31817538 0.0035187476
0002b0 e0 a4 6c 3c 7d 57 00 bd 40 71 bd 3b cd 1a f7 3d
       0.014443606 -0.031333435 0.0057813227 0.12065659
0002c0 4f ff 4e 3e 59 ec 28 3e 62 c3 89 bf 4b d5 fa 3b
       0.2021458 0.1649641 -1.0762751 0.007654821
0002d0 d2 17 8e be 93 b6 e9 be 25 e9 3d 3d a0 78 df 3e
       -0.27752548 -0.45647106 0.046364922 0.43646717
0002e0 86 4c ea be 93 bc 52 be a0 ad 00 3f 76 e1 ae 3e
       -0.45761508 -0.20579748 0.5026493 0.34156388
0002f0 83 c9 75 be 02 a0 bc bd 94 7b 57 bf e7 c4 27 3f
       -0.24002652 -0.092102066 -0.8417294 0.65534824
000300 20 df b5 3e 63 55 b5 bc 78 1b b4 bd 45 e7 5b bd
       0.35521793 -0.022135442 -0.08794302 -0.053687353
000310 00 50 55 3e 31 2d 8a be 58 8b 01 bf 17 76 6d 3e
       0.20831299 -0.26987603 -0.50603247 0.23189579
000320 56 28 be 3e c8 20 a2 be c6 ef f0 be 3f ea 27 3e
       0.3714015 -0.31665635 -0.47057933 0.16397952
000330 82 54 ea 3e 80 43 ed 3e a3 bc 8e be 35 85 1d be
       0.457676 0.4634056 -0.27878293 -0.15382846
000340 e2 e0 34 be 51 5b a9 bd 38 2e 9a 3e e6 ca ab 3e
       -0.17663911 -0.0826937 0.30113387 0.33553237
000350 1b f6 53 be ee ac 6d bd 35 cc 7a be 72 4c cd be
       -0.2069935 -0.058026247 -0.24491961 -0.40097386
000360 dc 81 25 be f8 27 d9 3e af 87 51 3d f4 75 38 3f
       -0.16162819 0.42413306 0.05115479 0.7205498
000370 6f 8f 91 bd 16 57 72 be 5c 34 c6 3e 92 03 e1 3c
       -0.07107436 -0.23666033 0.38711822 0.027467523
000380 94 37 52 bc 82 44 2a 3f 77 76 8a 3d 65 48 be 3d
       -0.012830634 0.66510785 0.067608766 0.09291152
000390 7a 16 4a be 6a cc 8b 3d 4a 34 bc be ea 14 bb 3e
       -0.19735137 0.06826098 -0.36758643 0.36539394
0003a0 13 4b 52 3d 68 62 c7 3c d7 e8 2b be 25 3b c4 3d
       0.051341128 0.024338916 -0.1678804 0.095815934
0003b0 bd ae 91 3c 0e 95 78 bf 66 f1 08 be 58 b9 4a 3e
       0.017783517 -0.9710244 -0.13373336 0.19797266
0003c0 75 d6 4e 3e f9 86 90 bf a9 b0 84 be 7f a8 59 3e
       0.20198996 -1.129119 -0.2591603 0.21255682
0003d0 c8 06 6c 3e fe 4d 7a be 29 56 e8 bd d4 b6 6f be
       0.23049462 -0.24443814 -0.11344559 -0.23409587
0003e0 5d 39 91 be e8 2a 61 3f 91 45 9e 3d 3d 7a fa be
       -0.28364077 0.87956095 0.077281125 -0.48921385
0003f0 d7 3f 43 3d f6 f7 b0 bd 2a 1d 13 bf 50 4b 3b 3e
       0.047668304 -0.08641045 -0.57466376 0.18290448

predictor/bn1/beta f4 [50]
000000 25 c4 29 3d 92 f9 65 be fe 84 32 be bb 08 fa bd
       0.041446824 -0.22458485 -0.17433545 -0.122086965
000010 44 8d 82 be 9f e3 84 be 07 d2 29 bc 6c 42 96 bd
       -0.25498402 -0.2595491 -0.010365016 -0.07336888
000020 46 e9 ac be eb 43 56 be 91 0d b1 be 52 7c fd bd
       -0.33771724 -0.20924346 -0.34580663 -0.12377228
000030 3d 81 58 bd f1 ea 32 be 92 e3 de bd 6a 99 83 be
       -0.052857626 -0.17472436 -0.10883249 -0.25702983
000040 5b 03 59 bd 14 83 3c be 27 44 84 be 98 d4 07 3d
       -0.052981716 -0.18409377 -0.25833246 0.03316173
000050 92 fb 33 be c6 ac f1 bd 83 d3 5c be 1d 03 78 be
       -0.17576435 -0.11800532 -0.2156506 -0.24219938
000060 23 05 b3 be ca a0 7a be 8d 8b a1 be b9 10 6a be
       -0.34964857 -0.24475399 -0.3155178 -0.22857942
000070 6c 14 c8 bc 46 12 84 be 10 f9 08 be d4 05 11 be
       -0.0244238 -0.25795192 -0.1337626 -0.1416238
000080 38 70 03 3d 12 53 7c be c7 4f 09 be e0 70 0b 3e
       0.032089442 -0.24641064 -0.13409339 0.13617277
000090 93 ed 45 be d6 e7 28 be c2 b6 9e be d7 91 ae be
       -0.19328909 -0.16494688 -0.30998808 -0.34095642
0000a0 a6 73 ff bd 97 9b aa be b2 f7 12 be c3 0d 64 be
       -0.1247323 -0.3332183 -0.14352301 -0.22270875
0000b0 16 92 ae be ca 72 8c be 7e b0 a6 be a4 b4 f3 bd
       -0.3409583 -0.27431327 -0.32556528 -0.11899689
0000c0 93 b2 8d be 99 8e 49 be
       -0.27675304 -0.19683303

predictor/bn1/gamma f4 [50]
000000 a9 27 8e 3f 63 38 41 3f 06 fe 55 3f 12 c6 72 3f
       1.1105853 0.75476664 0.83590734 0.9483348
000010 f1 51 83 3f 27 1b 51 3f 55 ce 72 3f 97 dd bd 3f
       1.0259382 0.81682056 0.9484609 1.4833249
000020 e6 e2 63 3f fd 32 88 3f 22 ab 48 3f b9 5a 6b 3f
       0.89018095 1.064056 0.7838613 0.91935307
000030 fa d1 45 3f fa 22 53 3f d0 d9 61 3f 39 64 80 3f
       0.77273524 0.82475245 0.8822298 1.0030586
000040 84 47 76 3f 10 99 70 3f 6f 39 44 3f a2 2b ba 3f
       0.96202874 0.93983555 0.76650137 1.4544566
000050 89 a5 54 3f 3f 59 69 3f 8e 17 47 3f 1c a8 6f 3f
       0.83065087 0.91151804 0.77770317 0.9361589
000060 ef ce 4a 3f 47 ff 55 3f ab 05 82 3f d1 e1 4d 3f
       0.79222006 0.8359265 1.015798 0.80422693
000070 c3 7d 59 3f 14 3e 97 3f c9 78 7c 3f ea e8 5b 3f
       0.8495752 1.181582 0.98621804 0.85902274
000080 2f 0d 9e 3f 6c 24 54 3f 95 10 80 3f 1f 16 98 3f
       1.2347773 0.82868075 1.000506 1.1881751
000090 ab da 79 3f d3 75 8d 3f 8d c6 62 3f d3 d0 5d 3f
       0.97599286 1.1051582 0.88584214 0.86646765
0000a0 a8 60 7b 3f fe 74 7e 3f b9 f8 6e 3f 84 c5 af 3f
       0.9819436 0.99397266 0.9334827 1.3732152
0000b0 78 ad 80 3f 6d b2 40 3f e9 de 4c 3f 45 55 6b 3f
       1.0052938 0.75272256 0.80027634 0.91926986
0000c0 ae 5e 65 3f fa 89 7d 3f
       0.89597595 0.9903866

predictor/bn1/avg_var f4 [50]
000000 c2 f4 ce 3e 2d 48 53 3f 69 4e 17 3f 79 00 22 3e
       0.4042111 0.82532007 0.5910402 0.15820493
000010 ec 1e 69 3f 6f 4f 0f 40 d2 5a f7 3e f6 22 fe 3e
       0.9106281 2.2392232 0.48311478 0.49636048
000020 98 db a1 3e 46 10 25 3e 1b 33 12 3f ec 43 90 3e
       0.3161285 0.16119489 0.5710923 0.2817682
000030 a1 f6 b8 3e 49 3c 96 3f 73 08 0a 40 8f 9d a8 3e
       0.36125663 1.1737148 2.1567657 0.32932708
000040 d7 89 1a 3e dd d4 ba 3e 7d 16 3a 3f 93 7d 0b 3f
       0.15091644 0.36490527 0.72690564 0.54488486
000050 cc f7 2d 3f 39 0d bd 3e 94 dd eb 3e 9c cf aa 3e
       0.67956233 0.3692415 0.46067488 0.33361518
000060 de ce 48 3f f8 dd f0 3e de b7 19 40 d6 b9 39 3f
       0.78440654 0.4704435 2.4018474 0.7254919
000070 a4 46 38 3f 67 df 40 3f 9f bd 0b 3f a9 58 6c 3e
       0.7198279 0.75340885 0.54586214 0.23080696
000080 af 6c 06 3f 51 5b 30 40 9c 50 65 3f 94 8e 14 40
       0.5250959 2.7555735 0.89576125 2.3212023
000090 d6 99 05 3f a7 d1 83 3f d9 49 23 3f 30 27 6a 3f
       0.5218786 1.0298356 0.6378456 0.91466045
0000a0 c4 22 c9 3e 9b cd f8 3e 0e 96 0b 3e ba cf 76 3f
       0.39284337 0.48594365 0.1363146 0.96410716
0000b0 ce 93 eb 3e bb 83 bc 3f 0a 9f 94 3e 7d 5a 97 3f
       0.46011204 1.4727701 0.29027587 1.182449
0000c0 f0 c4 b9 3e 86 b7 45 3f
       0.36283064 0.7723316

predictor/bn1/avg_mean f4 [50]
000000 83 ca b5 be 7d 9e 3a bf 30 83 8d 3e 0b 32 1f 3b
       -0.35506067 -0.72898084 0.2763915 0.0024291303
000010 51 c8 0a bf 29 48 c6 3f 0e 29 ee be b5 45 f1 be
       -0.5421191 1.5490772 -0.46515697 -0.47123495
000020 eb 6a f0 3e 06 13 70 bd 64 e0 00 3f de f0 96 be
       0.46956572 -0.058611892 0.5034239 -0.29480642
000030 c9 8a 18 3f ec a3 a1 3f b7 5d c5 3f f4 76 9d be
       0.5958677 1.262815 1.5419225 -0.30754817
000040 1f a5 24 be 3c e0 f3 3e ec ee 4a 3f 38 32 e4 be
       -0.16078614 0.47632015 0.79270816 -0.44569564
000050 fa 2b 80 be 04 a3 ea bd b9 bb 75 3d 40 41 e9 be
       -0.2503355 -0.11456874 0.05999348 -0.45557594
000060 f6 6c 53 3f 5b 61 03 3f 2e 4b cd bf ba ba cb bb
       0.82588136 0.5132043 -1.6038568 -0.006217328
000070 cb 73 33 be fa e7 44 3f fb eb 62 be 81 89 b9 be
       -0.1752464 0.7691647 -0.22160332 -0.3623772
000080 08 69 e4 be 26 e9 f6 3f 20 1c 33 bf 7f 5b ab bf
       -0.44611382 1.9289901 -0.6996479 -1.3387297
000090 77 fb 20 bf cb 47 67 bf 00 32 13 3f b5 c7 39 3f
       -0.62883705 -0.9034392 0.5749817 0.72570354
0000a0 b1 74 f8 be 75 44 bd 3e 06 8f 79 be 62 39 59 3f
       -0.48526528 0.3696629 -0.24370965 0.84853184
0000b0 9a 49 63 3e 45 7d ad bf 27 d0 91 3e bc ec a0 bf
       0.22196046 -1.3553854 0.2847912 -1.2572246
0000c0 a5 8c 96 3e 67 6d 9e be
       0.29404178 -0.30942842

predictor/conv6/W f4 [50, 50, 3, 3]
000000 cf b8 be 3d 82 21 b9 bd 6d fc 35 bd f0 d6 03 3e
       0.09312593 -0.09039594 -0.044430185 0.12874961
000010 b4 47 14 3e 31 fe f8 bd d5 6f f6 3d 6a d5 b3 3c
       0.14480478 -0.12157858 0.12033049 0.02195235
000020 52 46 18 3d 59 71 b1 3d b4 3f 08 3e e5 d9 00 3e
       0.037176438 0.086641975 0.13305551 0.1258312
000030 e2 b8 96 3c d7 58 a0 bc f8 89 2d bd b1 be 8a bc
       0.018398706 -0.019573612 -0.042367905 -0.016936632
000040 2e e0 21 bd 54 34 99 bd 66 a3 9d 3d c2 0d b4 bb
       -0.039520435 -0.07480684 0.076971814 -0.005494804
000050 b5 0d 4a 3b ae 66 6a 3e ba c7 46 3e 03 c3 b9 bd
       0.0030830924 0.22890732 0.19412127 -0.09070399
000060 1b 7e ac 3d e2 e5 8a bc 22 6b 3c 3d 03 d4 80 bb
       0.0842249 -0.01695532 0.046000607 -0.0039315238
000070 c1 2e a8 bc eb 27 fd 3d 8c c7 8e 3d 84 3c cf 3d
       -0.020530106 0.123611294 0.06971654 0.10118964
000080 c0 19 e7 bd 62 99 9c be 01 cb e9 bd 62 e6 dc 3c
       -0.11284208 -0.30585772 -0.11415673 0.026965324
000090 2d be f9 bc ea c8 09 bd f3 a2 82 bd 45 a5 51 bd
       -0.03048619 -0.033638872 -0.06378736 -0.051183004
0000a0 ef 5a 78 3d 93 80 97 3c c6 1c af bd a3 14 c9 3d
       0.060633596 0.018493926 -0.0855041 0.09818389
0000b0 d7 f8 0c bd c2 2c 89 bd da b3 94 3d 97 60 d5 bd
       -0.034417 -0.0669799 0.072608665 -0.10418814
0000c0 37 fa c9 3d 96 f0 77 3c 5d 86 94 bd d4 58 9b bd
       0.09862178 0.015133044 -0.0725219 -0.07585302
0000d0 9c 8e 36 bd 81 74 03 bd 4a a7 a8 bd e5 00 f3 bd
       -0.044569597 -0.03209353 -0.08235033 -0.11865405
0000e0 6c c5 5a 3d 06 91 b1 3d b4 81 67 3d 89 67 18 be
       0.053410932 0.08670239 0.05652018 -0.14883246
0000f0 c7 84 92 bd de 6e b1 bb d0 03 89 3d 82 81 7c 3e
       -0.071542315 -0.0054148277 0.0669018 0.24658778
000100 15 43 10 3d 2b ec 1d 3d 2e d7 76 3d 3f 17 8e 3d
       0.035220224 0.038555305 0.060263805 0.069380276
000110 e8 03 ba bc 4d a0 9b bd 30 80 53 bc eb c5 21 be
       -0.02270694 -0.07598934 -0.01290898 -0.15798156
000120 7e e4 8d 3e 1d 23 5b bd c4 c7 5f 3d 72 a6 02 3d
       0.27713388 -0.053500284 0.05463387 0.031897016
000130 d3 41 49 3e e4 eb 64 3d 48 75 88 bd d4 30 c1 bb
       0.19654016 0.055889025 -0.066629946 -0.0058957133
000140 a8 b0 17 3e 13 30 66 bd 7b b0 3a 3e 28 54 03 3c
       0.14813483 -0.05619819 0.18231384 0.00801567
000150 09 1b 01 be 9f b5 3f be 49 23 09 3d 5e 91 90 bb
       -0.1260797 -0.18721627 0.033480916 -0.0044118604
000160 15 66 35 3e 76 9c f6 bd c8 6d 29 bd 09 4e 92 bd
       0.17714722 -0.12041561 -0.04136446 -0.0714379
000170 27 22 17 bd e1 93 09 be df 3a 17 3e a6 89 02 bd
       -0.036897805 -0.13435318 0.14768551 -0.031869553
000180 20 8e 21 bd 46 69 3a 3e cd 12 a6 3c 15 fa 7c 3e
       -0.03944218 0.18204221 0.020272637 0.24704774
000190 9c f6 d1 3d ab e8 95 3b 47 05 e6 bc bc 27 54 3d
       0.10252115 0.0045748553 -0.028078688 0.051795706
0001a0 c2 8b 57 b9 af ef 40 3d ff 25 87 bd e7 66 85 bd
       -0.00020556062 0.04710358 -0.06599044 -0.06513768
0001b0 eb e4 92 bd 69 9e 14 3d cf b3 d1 bd 9a 6c 8f bd
       -0.07172569 0.036283884 -0.10239374 -0.07003136
0001c0 9a 13 d5 3b b3 54 bf 3d 86 2f 3e bd c7 14 d3 3d
       0.006502581 0.09342327 -0.04643204 0.10306697
0001d0 d1 06 8e 3d 97 8c 80 bd 57 f0 16 3e c9 e3 f1 3d
       0.06934894 -0.062768154 0.1474012 0.11811025
0001e0 dd 50 04 3e 86 e5 b8 3c 82 a8 b2 3d 44 04 c7 bc
       0.12921472 0.022570383 0.087235466 -0.024294026
0001f0 5f 1a f3 3b a6 77 14 bd 14 d7 5b 3c 5e 8c 51 3d
       0.007418915 -0.03624692 0.013417978 0.051159255
000200 3a 33 0b 3e a3 55 8c 3d 78 e2 04 3d a6 91 26 3c
       0.1359376 0.068522714 0.03244254 0.010166561
000210 36 1c 98 bd 39 5a 30 be 5e 06 1b bd e2 34 b4 3d
       -0.07427256 -0.17221917 -0.03784787 0.08799149
000220 72 df 5d bd 95 80 3f 3d c9 9b 9a bc 94 1d 8c 3d
       -0.054168172 0.046753485 -0.018873112 0.06841579
000230 4a b8 a0 bc e1 a0 05 3b 11 69 00 3e 11 36 d2 bd
       -0.019619126 0.002039008 0.1254008 -0.102642186
000240 59 7c 60 be ca 48 a6 bd 63 13 10 bd 6b 82 cb bc
       -0.21922435 -0.08119352 -0.03517474 -0.024842462
000250 df c4 2e bd 48 b2 bf bd e0 55 0f be 4d 58 83 bd
       -0.04266822 -0.09360176 -0.13997602 -0.064133264
000260 ee 4f 34 bd b8 35 12 3d 49 85 cc bd ce d6 1b bd
       -0.04402154 0.03569576 -0.099863596 -0.03804665
000270 1a 4e 1a bd ef 72 8f 3d c4 57 92 bd fa ef 08 be
       -0.03767214 0.07004344 -0.07145646 -0.13372794
000280 f9 8f 1e bd 62 ac e7 bd b7 0f f6 bd 0c 6c 2d be
       -0.03871152 -0.11312176 -0.12014716 -0.16935748
000290 3d 29 4d bd 0c 0e 09 3e f6 ab b4 3d 74 a0 2f be
       -0.050088156 0.13384265 0.088218614 -0.17151052
0002a0 e5 47 78 bd c0 c4 d2 3d cf 59 fc 3c d0 65 30 be
       -0.06061544 0.10291433 0.030804543 -0.17226338
0002b0 f5 a0 14 bc e6 8c 61 bc 0f 43 45 3d 74 96 43 3d
       -0.009071578 -0.013766503 0.048159655 0.047750905
0002c0 0e a4 5b bd 35 01 95 bd 48 00 16 be 60 9d c8 3d
       -0.05362325 -0.07275621 -0.14648545 0.09795642
0002d0 f8 5e 64 3d c1 2f 34 be d6 78 a0 bc 2a 6c eb bc
       0.05575463 -0.17596342 -0.019588869 -0.0287381
0002e0 40 0a 07 3e 4c b0 27 3d 06 89 92 3d 65 56 80 bb
       0.13187504 0.040939614 0.071550414 -0.003916549
0002f0 86 62 ee bd 19 8b 8c be 38 8b 0a be b2 48 f1 bd
       -0.116398856 -0.27449873 -0.1352967 -0.11781444
000300 cd 9c 90 bd 2b 79 2c 3d 1d 30 fb 3c b3 78 85 bb
       -0.070611574 0.042107742 0.03066259 -0.0040732264
000310 fe 1d e3 bd 93 c2 20 be 67 c7 f9 bd bb de 31 be
       -0.11089705 -0.15699224 -0.12196236 -0.17370121
000320 6b b3 c0 bd b4 ac 66 3d ed e6 c4 3c df 4e 4d 3d
       -0.09409221 0.056317046 0.024035895 0.050124045
000330 de 6d 85 3d 6d 85 df 3d ef 10 3a be ff f2 3c be
       0.06515096 0.10914121 -0.18170522 -0.1845207
000340 28 36 b0 3d 8e df be bd 04 75 15 3d 54 28 95 3c
       0.086040795 -0.093199834 0.036488548 0.018207707
000350 67 7d 1e be 46 9e f0 3c f4 df 00 3e 93 3d 65 bd
       -0.15477525 0.029372346 0.12585431 -0.055966925
000360 44 c8 33 bd 56 5a f0 3d cf d8 43 bc 4d 36 9f 3b
       -0.04389216 0.1173598 -0.011953547 0.004858768
000370 fd 28 dc bc 17 eb 24 3c f1 d8 04 3c 05 6c e7 3c
       -0.026875013 0.010065815 0.0081083635 0.02824975
000380 d3 7e 42 be fe f2 98 3d c6 af 25 ba ad 99 a9 bc
       -0.18993692 0.07468222 -0.0006320443 -0.020703161
000390 1f 55 ff bb c3 b3 0d 3c d4 54 98 3d 21 8d ce bd
       -0.0077921296 0.008648816 0.07438055 -0.10085512
0003a0 c7 5d 84 bd 54 a3 20 bc 27 0d e6 bd 5b 60 8e 3d
       -0.06463199 -0.009804565 -0.11232977 0.06951972
0003b0 3b b4 15 3e 09 46 a8 3d 4d 87 50 3d 8f 4f ca bd
       0.14619534 0.08216483 0.050910283 -0.09878456
0003c0 32 ca 3f bd 4b 05 14 be e6 66 06 3d 77 f1 09 be
       -0.046823688 -0.14455144 0.032812975 -0.13471018
0003d0 05 5d 3f 3d 86 fc 89 3d f8 4d 0a 3e 67 b6 4d bd
       0.04671957 0.06737618 0.13506305 -0.05022278
0003e0 6c bc 9c bd e8 f9 5d bd 50 a0 36 3d a6 7e 7f bd
       -0.07653126 -0.054193407 0.04458648 -0.06237664
0003f0 43 7c 22 bc 9d b2 89 3d 01 6f a7 3d 10 31 f2 bc
       -0.009917322 0.06723521 0.08175469 -0.02956441

predictor/bn6/beta f4 [50]
000000 83 e0 1d be fa e0 c6 bc 2f 06 2c be 42 a7 10 3a
       -0.15417676 -0.024277199 -0.16799234 0.00055180874
000010 96 f9 23 be 8a 3b 6a bd fa 1c c3 bd 35 22 81 be
       -0.16013178 -0.057185687 -0.09527011 -0.2522141
000020 f1 97 03 be 3c c7 5e be ce 03 1c be 39 05 4c be
       -0.1285093 -0.2175569 -0.15235826 -0.19923867
000030 53 4b 14 be 00 e2 54 be 29 b9 1b bd 1d 99 6d be
       -0.14481859 -0.20789337 -0.03801838 -0.2320294
000040 94 5d 1e be dc 94 ca 3c 16 ef 85 bd ce 01 01 be
       -0.15465385 0.024729185 -0.06539743 -0.12598345
000050 1d 36 56 be 77 57 4e be ef dd 02 be 18 a9 8b bd
       -0.2091908 -0.20150553 -0.12779973 -0.068193614
000060 cf b4 52 be 9b 89 9b bc c3 d8 d5 bd da 0d 57 be
       -0.20576786 -0.018986514 -0.10441735 -0.21001378
000070 24 1b b6 bd c0 53 06 be 4f e2 38 bc f5 a2 bd bd
       -0.088918954 -0.13117886 -0.011284425 -0.09259597
000080 38 6b f6 bd 16 5d 6a be d5 d2 8e bd 0b 37 dc bd
       -0.12032169 -0.22887072 -0.06973807 -0.10752686
000090 4d b3 53 be a5 bc 92 bd cf c9 78 be 2e 5e a5 bd
       -0.20673867 -0.07164887 -0.24295734 -0.08074604
0000a0 fa da a4 bc 69 50 30 bd 3e aa 36 be a9 6a e5 bd
       -0.020123947 -0.043045435 -0.1783838 -0.112019844
0000b0 d1 36 2d be cd f9 f3 bd 2c cb 0b be cd ab a2 bd
       -0.16915442 -0.1191288 -0.13651723 -0.07942925
0000c0 a3 ba fb bb 54 ac 11 be
       -0.007682161 -0.14225894

predictor/bn6/gamma f4 [50]
000000 b1 4f 87 3f 5c 97 83 3f 70 88 92 3f a5 cb 7e 3f
       1.0571195 1.0280566 1.1447887 0.99529487
000010 5b b5 79 3f d8 00 80 3f 45 f0 73 3f 13 a1 7f 3f
       0.9754235 1.0000257 0.952885 0.99855155
000020 9a fa 86 3f 39 de 76 3f b8 8a 75 3f 68 30 76 3f
       1.0545228 0.96432835 0.95914793 0.9616761
000030 ed 53 61 3f d9 21 8c 3f 0e 1c 74 3f ea b7 82 3f
       0.88018686 1.094783 0.9535531 1.0212376
000040 ea 6a 7a 3f cd ea 8c 3f d5 3d 8e 3f 30 6b 69 3f
       0.9781939 1.1009156 1.111262 0.9117918
000050 ce 00 79 3f 65 d2 91 3f 91 e6 84 3f ea ce 73 3f
       0.9726685 1.1392332 1.0382863 0.952376
000060 a3 9b 7e 3f fb f4 74 3f 80 17 79 3f d4 dd 63 3f
       0.9945623 0.9568631 0.97301483 0.8901036
000070 7d a8 81 3f 74 24 6a 3f 6a 7d 6e 3f 48 3c 83 3f
       1.0129544 0.91461873 0.93160117 1.0252771
000080 bc 7f 7d 3f b5 ec 7b 3f 03 1c 76 3f 22 cd 70 3f
       0.9902303 0.9840806 0.9613649 0.9406301
000090 7e 9e 82 3f f9 1a 70 3f 2b ca 80 3f 49 89 6c 3f
       1.0204618 0.93791157 1.0061697 0.9239698
0000a0 d8 00 7e 3f 53 da 82 3f 81 d9 74 3f 99 2d 81 3f
       0.9922004 1.0222877 0.95644385 1.009204
0000b0 f0 44 88 3f 0a 66 7a 3f 42 0e 86 3f c6 bb 8c 3f
       1.0646038 0.9781195 1.0473101 1.0994804
0000c0 ea e8 6f 3f 87 2c 87 3f
       0.93714774 1.0560464

predictor/bn6/avg_var f4 [50]
000000 8a 7e 1f 40 28 01 4c 40 20 0a 1a 40 25 81 2c 40
       2.4920983 3.1875706 2.406868 2.6953824
000010 b4 6d 2b 40 15 51 28 40 0a 3b 20 40 2e 35 2e 40
       2.6785707 2.6299489 2.5036035 2.7219958
000020 11 c7 08 40 ee 17 43 40 78 99 e9 3f 62 df 47 40
       2.13715 3.0483356 1.824996 3.1230092
000030 d5 c0 0c 40 11 bb 8c 40 95 67 27 40 a4 db 32 40
       2.1992695 4.3978353 2.6156971 2.7946558
000040 d7 f1 12 40 6a cd 20 40 6d 22 3e 40 13 34 59 40
       2.2960107 2.5125375 2.9708512 3.3938034
000050 b7 88 13 40 05 0d 33 40 88 3d 10 40 a5 e4 0e 40
       2.3052194 2.7976696 2.2537556 2.2327054
000060 98 39 3d 40 f3 71 11 40 cc b5 23 40 99 a2 28 40
       2.9566402 2.27258 2.557971 2.6349242
000070 3c 50 17 40 06 d1 15 40 5b 43 3d 40 81 8d 32 40
       2.364272 2.3408828 2.957236 2.7898867
000080 a0 d2 20 40 21 ae 13 40 aa ef 95 40 5d 72 38 40
       2.5128555 2.307503 4.685506 2.8819802
000090 92 10 55 40 ca fb 41 40 50 1e 2a 40 07 23 02 40
       3.3291364 3.030993 2.6581001 2.033388
0000a0 d1 1a 1d 40 0a eb 28 40 ce eb 0d 40 93 52 19 40
       2.4547617 2.6393456 2.2175174 2.395665
0000b0 8a ba 35 40 ea ae 18 40 47 bb 3b 40 44 b8 33 40
       2.8395104 2.385676 2.9333055 2.8081217
0000c0 92 6a 2a 40 a3 be 39 40
       2.6627545 2.9022605

predictor/bn6/avg_mean f4 [50]
000000 23 1a 78 bf 6b 40 ef be 35 76 44 bf 1e a1 1f bf
       -0.9691488 -0.46728835 -0.7674287 -0.6235522
000010 a3 41 93 be b1 59 d3 bf 31 cc dc 3d e1 66 0c 3f
       -0.28761014 -1.6511747 0.10781134 0.5484448
000020 c5 48 98 be af 43 48 bf 6f 32 90 bf fd a9 05 bf
       -0.2974302 -0.78228277 -1.1265391 -0.52212507
000030 f5 9a be bf 8a 5f 07 3f f7 7b f7 be d6 1c 7c 3f
       -1.4891039 0.52880156 -0.48336765 0.984815
000040 a1 5a 0e 3f dd c1 0e c0 e8 d8 a7 bf 33 8b 04 bf
       0.5560704 -2.2305825 -1.311307 -0.517749
000050 e9 95 13 bf b4 25 c5 be a2 d5 ca be fd 63 12 be
       -0.5765062 -0.38505328 -0.39616114 -0.14295955
000060 5a f2 f6 be 39 58 2d bf d4 ba ad bf 67 e5 d2 3f
       -0.48231775 -0.6771274 -1.357264 1.6476258
000070 22 d6 80 bf a3 75 d3 be a9 58 66 bf c0 7b f3 bf
       -1.0065348 -0.41300687 -0.89979035 -1.902214
000080 fd 1b 2b bf aa ae 7e 3f 72 00 cd bf 29 1d 83 bf
       -0.6683958 0.99485266 -1.6015761 -1.0243274
000090 66 1c 1c 3f 54 9c b7 bf 2c d8 90 bf bb 2b 1e be
       0.6098083 -1.4344583 -1.131597 -0.1544637
0000a0 5d 61 f7 bf f2 40 e6 bf f7 a5 c0 be a8 77 2e bf
       -1.9326588 -1.798857 -0.3762662 -0.6815133
0000b0 dd 36 5d bf 0e 25 05 c0 12 04 9c bf 73 c8 18 c0
       -0.8641184 -2.0803866 -1.2188742 -2.3872344
0000c0 4a 39 7b bf 39 53 5d 3f
       -0.9813429 0.8645511

predictor/conv3/W f4 [50, 50, 3, 3]
000000 d9 88 0b 3d 5b 4a 35 bc df 4b d7 bd 95 08 44 3d
       0.034066055 -0.011065091 -0.10512518 0.047859747
000010 38 59 81 3b ba 8c ae 3d 18 2d f3 3c d4 58 0f be
       0.0039474033 0.08522935 0.029684588 -0.13998729
000020 9c 92 05 be aa 6d 83 3d a8 8b 19 3e ce 83 20 be
       -0.13044208 0.06417401 0.14994681 -0.1567528
000030 cd 0c aa 3d e7 8f 03 3e c7 fc 86 bc 63 78 ad bd
       0.08303223 0.12847863 -0.016477956 -0.084702276
000040 45 77 ad bd f5 c5 58 bd 04 f9 1a bd c6 70 bd bc
       -0.084700145 -0.05292316 -0.037835136 -0.023125064
000050 a7 39 b3 3b d1 8c 16 bd ee 47 cf 3d 61 c7 1e 3d
       0.005469519 -0.036755387 0.101211414 0.03876436
000060 63 f7 75 bd 46 ac 8b bc 10 c3 a8 bc ce 3c 03 3d
       -0.06005038 -0.01704992 -0.020600826 0.03204041
000070 67 dc d2 bd a7 ed f9 3d 7f 76 76 be d9 87 0c 3d
       -0.10295945 0.12203532 -0.2406864 0.034309242
000080 41 b1 83 3d 59 3c 8a 3d a3 00 3d bb a6 85 00 3d
       0.06430293 0.06749792 -0.002883949 0.031377457
000090 91 10 23 bd 50 e5 0b 3e 07 c3 4d be 68 ab 04 be
       -0.03981072 0.13661695 -0.20093928 -0.12956011
0000a0 d0 34 8f bd 8c 91 51 be 74 61 04 3a e1 6a 43 3d
       -0.06992495 -0.20465678 0.0005049922 0.04770935
0000b0 40 fd ee 3d a3 2b 81 3c 1e 12 01 3e 24 f1 05 bd
       0.11669397 0.015767878 0.12604567 -0.032700673
0000c0 46 13 73 3d 82 8f 59 3e a9 35 5d bd 48 bc 91 bd
       0.059344552 0.2124615 -0.054006252 -0.0711599
0000d0 ab 2e da 3c 03 4b fe 3c d1 ad 8e bc 3b 72 37 bd
       0.026633581 0.031041628 -0.017416866 -0.044786673
0000e0 88 c2 75 3c 5c 76 32 be 0c c9 d2 bd 38 4d c9 bd
       0.014999993 -0.17427963 -0.10292253 -0.098291814
0000f0 c9 06 4c be 9d ff 66 bd 88 38 14 bb 80 f0 e0 3c
       -0.19924463 -0.056396116 -0.0022616703 0.02745843
000100 24 b8 84 3d 46 29 de 3c af 4c db bb d1 ff ef 3d
       0.064804345 0.02711929 -0.006692491 0.11718715
000110 b1 0d f2 3c c4 70 56 be 29 69 67 bd 5e 92 15 be
       0.029547544 -0.20941454 -0.056496773 -0.14606616
000120 db 32 9c 3d 6e fd 54 3e 63 dd 28 3e eb ea 0c be
       0.076268874 0.20799801 0.16490702 -0.13761489
000130 e4 47 41 3e b7 14 be 3d 74 24 a8 bb 24 d3 85 bd
       0.1887508 0.09281295 -0.0051312987 -0.065344125
000140 3a c2 ae bd 69 a0 c8 3d cf 33 d2 3d b8 31 ee bd
       -0.085331395 0.09796221 0.10263788 -0.11630577
000150 1a 97 10 3d c9 11 e7 3c 69 04 2b bc ce 7c 8e 3d
       0.03530035 0.028206723 -0.010438063 0.06957398
000160 05 cf 8c bd 1e b4 5d 3d 68 9f 4a 3d ed ab 2c be
       -0.06875423 0.05412685 0.049468428 -0.1686246
000170 2a 1a 9f bd a2 08 d0 3c ca 21 96 3c 60 78 be 3d
       -0.07768662 0.025394741 0.018326659 0.093003035
000180 32 8b 9c 3d d2 93 ee bc a0 79 4d bd bd a1 31 bc
       0.07643737 -0.02912322 -0.05016482 -0.010841784
000190 ad 64 44 be c5 4c 3b bd d5 c7 9b bd 88 6a 45 3d
       -0.1917903 -0.04572751 -0.07606474 0.0481973
0001a0 bb ec 23 bd 88 80 0c 3d 87 4d 9a 3c 49 7c b7 bc
       -0.040020686 0.034302264 0.018835796 -0.022398131
0001b0 92 21 44 be 71 dd 82 bd ba 5b 35 3d dd ea a8 3d
       -0.19153431 -0.06389893 0.04427693 0.082479216
0001c0 9a b6 25 3c 14 d7 d9 bd 85 b5 80 bd 1d d0 00 3e
       0.010114336 -0.10636726 -0.06284622 0.12579389
0001d0 96 db d8 bd 3a f2 10 be dd 8a 1f 3d 75 94 b2 bd
       -0.10588758 -0.14154902 0.03895079 -0.08719722
0001e0 ca d0 d5 bd 6c 0b 49 3e 98 6e f5 3d bb e8 da bc
       -0.10440214 0.19633263 0.11983985 -0.026722303
0001f0 9f e2 1d bd d1 9c 72 bd 0b aa ef 3c 85 5d 28 3d
       -0.0385462 -0.059231583 0.029255887 0.041104812
000200 5d f5 8f bd c6 f7 f8 3d 98 1c 65 bd a8 0d c5 bd
       -0.07029221 0.12156634 -0.055935472 -0.09621745
000210 fe de 9f bd 1c b6 48 bc 06 9a 26 be 18 93 3e bd
       -0.07806204 -0.0122504495 -0.16269693 -0.046527
000220 e2 f9 1f bd 6e ef 75 3d 7d 39 4a bd 85 a9 6d 3d
       -0.039056666 0.06004279 -0.04937123 0.058022995
000230 3c fa a3 3d a9 a6 e5 bd 8c 17 bf 3d 2a 29 f7 3c
       0.08006713 -0.112134285 0.09330663 0.030170996
000240 f8 f1 07 bc b3 f8 5b bd aa 93 92 bd 72 6a 03 3d
       -0.008297436 -0.053703975 -0.07157071 0.032083936
000250 9f 11 b2 3d 65 9b 5e 3d 9e 28 18 bd 82 06 e0 3c
       0.08694767 0.054347415 -0.03714811 0.027346853
000260 22 fa d5 bd 1f 46 83 3d a2 6e e5 3c fd 4f 95 3d
       -0.104481 0.06409859 0.028006855 0.07290647
000270 c0 e3 85 3d a0 76 a4 3d 85 77 22 be e0 4f 78 3b
       0.065375805 0.080304384 -0.15865906 0.0037889406
000280 7c 86 88 3c 02 2e e3 3c dc 41 9c 3d 11 69 ed 3c
       0.01666569 0.0277319 0.07629749 0.028980764
000290 8d af c5 3d bf f8 d9 3c 05 2c e9 bc 8c 37 83 bc
       0.09652624 0.02660787 -0.028463373 -0.016017698
0002a0 09 6d 6c bd c8 62 26 3d 4f 9b 05 bd d4 fc 15 bc
       -0.05772117 0.04062155 -0.032618817 -0.009154517
0002b0 13 16 2a bb d2 1b 04 be 57 c3 3a 3d 3d 3e 13 3d
       -0.0025953099 -0.12901238 0.045596447 0.035948027
0002c0 41 9c 80 bd 23 8a 70 3d 1a e0 08 be 15 32 d7 3d
       -0.06279803 0.058725487 -0.13366738 0.10507599
0002d0 ec 0d da bc 53 06 bc bd 62 b8 b0 bd 9c 49 02 bd
       -0.026617967 -0.09180894 -0.08628918 -0.03180848
0002e0 63 5e 1e 3e b4 e0 dd 3d b8 a6 0d be 98 1d 03 bd
       0.15465693 0.10833874 -0.1383313 -0.032010645
0002f0 c1 b3 2c be ef 67 20 3d 57 08 de 3d 16 71 a7 3d
       -0.16865446 0.03916162 0.108414344 0.08175866
000300 e7 ad de bd c7 c0 f4 3d ec ac 53 bc b3 bc 16 bd
       -0.10873013 0.11950832 -0.012919646 -0.03680105
000310 49 18 37 bd ca 70 a9 bd c1 6d 42 bd 59 91 04 bd
       -0.044700895 -0.08273466 -0.04746795 -0.032365177
000320 ca be e1 bd 73 a1 6b bd 2a c3 c0 bd 02 98 c2 bb
       -0.11022718 -0.057527017 -0.094122246 -0.005938531
000330 95 6b d8 bd 0c 92 02 bd 67 e2 e5 bb bc 00 8c bd
       -0.10567395 -0.031877562 -0.0070155147 -0.068360776
000340 6f 88 c3 bc a0 4a 73 bd 4f f7 75 3d d7 ea 57 be
       -0.023868768 -0.05939734 0.060050305 -0.21085678
000350 8f 9d 7e bc c6 2f 31 3d b0 cb 36 3d 58 3a 9c bd
       -0.015540495 0.04325845 0.044627845 -0.07628316
000360 39 f3 56 3d f3 e3 71 be dd 66 00 be 18 56 c1 bd
       0.05247805 -0.23622112 -0.12539239 -0.09440249
000370 12 35 91 be 4d 38 fa 3c 7c 34 43 3c 6a 42 10 3d
       -0.28360802 0.030544424 0.011914369 0.035219587
000380 19 83 8c bd b7 51 dd bc 83 bd 24 3d 58 90 43 bd
       -0.068609424 -0.027016504 0.040219795 -0.04774508
000390 d4 a5 d0 bd 0e 8d 6e bd 0d f4 9a bd 41 62 f8 bd
       -0.10187879 -0.05823999 -0.0756608 -0.121281154
0003a0 91 8a 1c 3b a2 6f 07 3d 4e c8 88 3d d6 4c 05 3d
       0.0023886303 0.033065446 0.0667883 0.03254398
0003b0 45 82 b4 bd 6a 08 7c 3d 6c bc d0 3d ba cd 23 3d
       -0.088139094 0.06153146 0.101921886 0.039991118
0003c0 e8 2b 21 bd f7 ea 98 bd b1 c8 b3 3b 21 d7 90 3b
       -0.039348513 -0.07466691 0.0054865708 0.0044201766
0003d0 1b f1 6d 3d 8d 35 60 bc c8 a4 4d be fb d0 bd 3c
       0.058091264 -0.0136846425 -0.2008239 0.023170939
0003e0 bf 88 1e be 14 4d 0d bd 8c 47 ca 3c c2 69 2b bd
       -0.15481852 -0.034497336 0.02469232 -0.041848905
0003f0 31 14 0d 3d eb a7 c5 bd c4 c1 0a bd 00 3f 8e bb
       0.034443084 -0.096511684 -0.033876196 -0.0043410063
